pytorch_dqm/DQN_plainCNN_50x.pth (torch, 915491 bytes, 22 tensors)

conv1.weight f4 [32, 1, 5, 5]
000000 00 9a 61 3e 6b d8 a1 be 1a c5 47 3f 28 de e0 be
       0.22031403 -0.31610426 0.7803513 -0.43919492
000010 ba d8 94 3e 27 00 51 3a 5f f0 63 3d d8 7b c9 bd
       0.290716 0.000797274 0.055649158 -0.098380744
000020 b7 b8 ca bd 2f 1d 09 3e 63 66 bb 3c e6 cc bc 3e
       -0.09898513 0.13390039 0.02287597 0.36875075
000030 c2 b1 f3 be 1e 2f 85 be 16 36 3d be c5 55 d4 be
       -0.47596556 -0.2601251 -0.18477663 -0.41471687
000040 ca cf 10 bd 18 f0 f5 3e e9 b5 cc 3e 25 e1 c4 be
       -0.035354413 0.4803474 0.39982536 -0.38453022
000050 8b 35 5d bf e8 53 1d 3f ac da 2c bf 6b 47 f0 be
       -0.86409825 0.61456156 -0.67521167 -0.46929488
000060 00 d7 fe bd 95 31 78 be 22 ac 57 be c3 33 07 be
       -0.12443352 -0.24237664 -0.21061757 -0.1320334
000070 75 60 ec be a1 fa 2b 3f a2 48 79 bd f7 d6 03 be
       -0.4616734 0.67179304 -0.060860284 -0.12874971
000080 e6 0b 97 3e 4a db 3b bd 6d b8 51 be 38 3a f6 3e
       0.29501265 -0.045863427 -0.20480509 0.48091292
000090 af 8e 21 3e cb 3a 1e 3e 51 33 b6 3e 4a c1 38 bf
       0.15777086 0.15452115 0.35586026 -0.72169936
0000a0 a8 93 3a 3e 6d bf 71 be 4a da fa 3e 85 63 0e bf
       0.18220389 -0.2360818 0.48994666 -0.55620605
0000b0 de 93 63 be 7e eb 0e 3f e7 d2 c5 3e a9 dc 3b bf
       -0.22224376 0.5582808 0.38637468 -0.73383576
0000c0 93 e4 f1 be 08 bb 24 bf 3b 05 1f 3f c9 91 ef bd
       -0.472447 -0.6434789 0.62117356 -0.11697728
0000d0 d5 32 6e be 34 48 88 be 14 83 f9 3d 8a 3f dc be
       -0.23261578 -0.26617587 0.12183204 -0.43017226
0000e0 5e ef 3c 3f 67 cf 6d 3d 36 2b 61 3c 28 3e 54 be
       0.73802745 0.058059122 0.013743212 -0.20726836
0000f0 7c b8 be bc 12 69 43 bf f0 80 99 bd e0 ad 26 3f
       -0.023281328 -0.763322 -0.07495296 0.6510906
000100 ed 5a 6c 3d 12 91 be be a7 f9 cc bd 94 70 2f 3f
       0.0577039 -0.37220055 -0.10008555 0.68531156
000110 09 c2 4b bd 17 73 57 be 32 3a f3 3e a5 dd cf be
       -0.049745593 -0.21039997 0.47505337 -0.4059879
000120 05 0c da be 51 b9 44 be 37 7e 34 3e 2a 98 8f bf
       -0.42587295 -0.19211318 0.17626272 -1.1218312
000130 e9 28 2f 3e eb e6 41 bf 58 e8 d1 be aa 66 0c 3e
       0.1710545 -0.7574298 -0.40997577 0.13711038
000140 f7 f1 20 bf 7d b6 fa bc 15 82 a9 be b1 93 14 3f
       -0.6286921 -0.030604595 -0.33107057 0.5803786
000150 03 cf 89 3d 9f fb b3 bd c7 08 4f bf ba 60 97 be
       0.067289375 -0.08788227 -0.8087277 -0.29565984
000160 49 01 86 be 48 f7 43 3f d9 c4 2e 3e 32 40 0e 3f
       -0.26172855 0.76549196 0.17067279 0.55566704
000170 e0 ab e9 be de 57 99 bd 4a 32 2d be 2d 3e fa 3e
       -0.45638943 -0.074874625 -0.16913715 0.4887556
000180 4d 48 a8 be 3c 5c 96 bf 6f ad d3 3e d1 95 8a 3c
       -0.3286766 -1.1746898 0.41343257 0.016917141
000190 1c 5c 74 bd da 6b 53 3e 1c 42 12 3e 61 da d0 3e
       -0.059658155 0.20646611 0.14283031 0.4079161
0001a0 a9 79 83 3d 77 65 59 3e 64 f1 fd 3e ba d4 b4 3e
       0.06419689 0.21230112 0.4959823 0.35318547
0001b0 ca 06 67 3d b4 ce ef bd 27 77 d5 be 03 8e 0b 3f
       0.05640296 -0.11709347 -0.4169247 0.5451357
0001c0 b3 3c 83 be 6b b2 04 bf 7c ef 81 3d fc 04 82 be
       -0.25632247 -0.51834744 0.06344506 -0.25394428
0001d0 dc 27 52 bf df de bf 3e 85 24 9c 3e bd 92 2f 3d
       -0.8209207 0.37474725 0.30496612 0.04286455
0001e0 a2 93 80 3e 04 d2 af bd 9e 4d 38 3f 06 d8 7c bf
       0.25112635 -0.08584979 0.71993434 -0.98767126
0001f0 c2 1d 6a 3d a9 a3 e3 bb 8b d2 d6 3d 6e 49 ab 3e
       0.057157286 -0.006947 0.10489377 0.3345446
000200 0e 93 49 3f 78 ce 0a 3c a2 67 31 be 3b 36 42 3e
       0.7874001 0.008472078 -0.17324689 0.18966
000210 59 40 dc 3e 6e 85 c1 be 25 d1 ab be ad 44 ff be
       0.43017843 -0.3779711 -0.33558002 -0.49857083
000220 77 df da 3e 01 7e 13 bc 68 81 aa be a0 eb 06 bf
       0.42748615 -0.00900221 -0.33301854 -0.52703285
000230 07 5b 55 3f ac 9d 46 be ab b7 30 bf 5e da 3f bf
       0.8334202 -0.19396085 -0.69030255 -0.74942577
000240 71 f5 c7 be 87 ac bf be df f1 94 3e 6b 25 4a bf
       -0.39054444 -0.37436315 0.29090783 -0.78963345
000250 a2 47 c5 3e 04 91 9a 3e af 9f d9 3e 78 eb ab be
       0.38531214 0.30188763 0.4250464 -0.33578086
000260 93 50 9e bd 38 56 04 bd 4e 59 81 be 45 b1 f5 3d
       -0.07730212 -0.032308787 -0.25263447 0.11996702
000270 f7 a8 7d 3f 03 da a4 3e 24 9c a4 3d 1d f2 b7 bd
       0.99085945 0.3219758 0.08037594 -0.08981726
000280 e6 2a ea be 52 d7 58 bf 57 b6 06 3f 9b 66 ce 3c
       -0.45735854 -0.8470355 0.5262198 0.02519541
000290 b2 ff 23 3e d1 cb 0a 3e 11 f1 fc bd e9 67 4a bf
       0.16015509 0.13554312 -0.12350667 -0.79064804
0002a0 fe c4 58 3e 5f bb d2 be a6 58 c6 3e de d6 8e 3d
       0.21168897 -0.41158578 0.38739508 0.069745764
0002b0 d4 41 b8 bd 8d 81 2e 3e fb a6 26 3e ac ab c8 3e
       -0.08996931 0.17041607 0.16274635 0.39193475
0002c0 22 84 11 3f bb 34 d6 3c 3d 41 5a be 4d 41 97 3e
       0.56842244 0.02614819 -0.21313949 0.29542008
0002d0 5c 17 c3 3e 76 cd a3 3f e3 36 9c 3c f2 51 c1 be
       0.3810376 1.2797077 0.01906914 -0.37757832
0002e0 c0 c6 32 be e8 26 0e bf af 15 56 bf ce 96 f1 bd
       -0.1745863 -0.55528116 -0.83626837 -0.11796342
0002f0 92 4b b0 be 7f 28 3b b7 52 a2 bf 3e 8a c2 12 bf
       -0.34432656 -1.1155497e-05 0.37428528 -0.57328093
000300 36 af bd be 4f 2f 7b be 94 fe 8c be 8b df 76 bc
       -0.37047738 -0.24529766 -0.27537978 -0.015067945
000310 1a 09 23 3e c3 41 22 bd e6 9d 9c bf 25 92 13 3f
       0.1592144 -0.039613497 -1.2235687 0.57644874
000320 fe b0 0d 3e 6a 02 9c be e2 26 c7 bd 76 19 09 3f
       0.13837048 -0.30470592 -0.09724213 0.53554475
000330 e9 78 e3 3e 9d 23 b9 3e c1 5c 71 be 6b e7 99 be
       0.44428185 0.36159983 -0.23570539 -0.3005937
000340 b1 7f c4 3e 68 c8 2f bc 75 57 1d 3f 1b 72 18 be
       0.3837867 -0.010728933 0.61461574 -0.14887278
000350 6e f0 6f 3e 01 fb 14 bf fd bc 65 be 9a 9f 01 bf
       0.2343156 -0.581955 -0.22435375 -0.5063416
000360 85 fa da 3c e7 94 80 be 9c 4c 89 be ec dc 3f 3e
       0.026730785 -0.25113603 -0.2681626 0.18736619
000370 27 bc 94 3d 54 d5 bd 3e 4c ca 9b 3b 6f 0e 64 bf
       0.0726245 0.3707682 0.0047543403 -0.89084524
000380 c5 5b 10 3e f5 48 43 3e b1 18 60 3e 44 08 be be
       0.14097507 0.190708 0.21884419 -0.3711568
000390 08 e3 04 3f f4 e0 8d bc e4 76 bd bd 4a d4 24 3e
       0.5190892 -0.01731918 -0.09251192 0.16096607
0003a0 47 b8 08 bf 31 89 4f 3e 9c 34 0d bf 13 b6 40 3d
       -0.53406185 0.20267178 -0.551584 0.04704864
0003b0 95 48 f0 3e 1d 76 93 3e 22 91 5f bd b5 f0 7a bc
       0.46930376 0.2880105 -0.05458177 -0.015316178
0003c0 20 11 32 3d 1f c4 e0 be e4 ea af be 39 7f a0 bd
       0.043473363 -0.4389963 -0.34358895 -0.07836766
0003d0 85 d3 77 be c5 98 68 3f 86 2d 04 3e fc 0f 68 3e
       -0.24201782 0.9085811 0.12907991 0.22662348
0003e0 a3 dd 4b 3c d3 74 c0 be b7 01 e8 3d 2e 80 5e be
       0.012442979 -0.3758913 0.11328452 -0.21728584
0003f0 11 6d 6a be 12 16 ca 3d 21 73 59 3e 07 6a 40 3e
       -0.22893168 0.09867491 0.21235324 0.18790446

conv1.bias f4 [32]
000000 04 28 25 bf c2 1e f4 be 24 21 fb be 67 08 14 bf
       -0.64514184 -0.47679716 -0.49048722 -0.5782532
000010 f6 4c 5e bf 89 58 ce be ea c6 56 bf 1b 12 dc 3d
       -0.86836183 -0.40301922 -0.8389727 0.10745641
000020 93 6a 0c bf 7f 61 8a bf 91 5b 78 3d 8e 11 c3 3d
       -0.5485012 -1.0811003 0.0606342 0.09524833
000030 8c 3d 1f 3d ee e5 b1 be 98 73 eb 3d d9 a5 47 bf
       0.038877055 -0.34745735 0.11496657 -0.7798744
000040 e6 fa 11 3e 18 48 00 3e 0b 57 32 3e 6a 33 72 be
       0.14255866 0.12527502 0.17416017 -0.23652425
000050 01 99 0a bf 03 77 76 bd 5f d9 02 be f4 ca 50 be
       -0.54139715 -0.060172092 -0.12778233 -0.2038992
000060 8c ab 31 bf 56 7c ee be e8 61 56 bf 16 d0 0b bf
       -0.69402385 -0.46579236 -0.83743143 -0.5461439
000070 b5 df 5f bf a0 f6 5f bf 1f 54 ed 3e 10 96 ec 3d
       -0.87450725 -0.87485695 0.46353242 0.1155206

conv2.weight f4 [32, 32, 5, 5]
000000 70 ac 50 bc a6 ff 54 bf 81 ef 04 bf ef f0 8b bf
       -0.012736425 -0.8320259 -0.51927954 -1.0932902
000010 37 b9 28 bf 62 e6 1a bf 97 23 0c bf 03 a3 a4 be
       -0.65907615 -0.60507786 -0.54741806 -0.32155618
000020 f9 74 f8 3c 59 ca 5f 3e ca 54 04 bf ce b9 10 bf
       0.030329214 0.21854533 -0.5169188 -0.56533515
000030 0c 94 9c be 8b 1c e3 3d 3b 22 1d bf 9d 88 9c bd
       -0.305817 0.110894285 -0.61380357 -0.076432444
000040 51 eb b4 be 5b 79 42 be c7 4d 55 bf d4 ff 1e 3d
       -0.35335782 -0.18991606 -0.83321804 0.038818195
000050 c9 13 4b bf 9c b3 3d 3f dd 02 b0 3c 84 09 e2 be
       -0.79327065 0.7410219 0.02148574 -0.44147885
000060 43 82 73 be 27 7c fd 3e 0a 1e 24 bf 68 13 40 bf
       -0.2378016 0.49508783 -0.64108336 -0.7502961
000070 68 89 de be e0 53 cf be f5 78 c2 3e 69 d8 a5 be
       -0.43464208 -0.4049368 0.37982908 -0.3239167
000080 a9 a6 8f bd a2 43 dd be a5 0d 55 bf bf e2 40 3e
       -0.0701421 -0.43215662 -0.83223945 0.18836497
000090 27 37 2e be b4 f2 b1 3d ce 07 1b 3f ca 52 8f be
       -0.17013226 0.0868887 0.60558784 -0.2799285
0000a0 16 d2 91 bf 7a ab 25 bf da 9a c4 be fa f6 3f be
       -1.1392238 -0.6471478 -0.38399392 -0.18746558
0000b0 0e dd 70 be 11 62 01 bf 63 41 5c bf f8 50 86 bf
       -0.23521826 -0.5054026 -0.8603727 -1.049346
0000c0 5b 2a 97 be 0a c6 26 3f fa 14 23 3f b3 49 26 bf
       -0.29524502 0.65145934 0.6370388 -0.64956206
0000d0 38 79 b1 bd b8 bb 0a 3e d9 bf db 3c 47 18 1c bf
       -0.08665699 0.13548172 0.026824879 -0.60974544
0000e0 ca c8 a7 3d 49 b6 51 bf ec da 07 bf d5 18 61 bf
       0.08192594 -0.8191877 -0.53068423 -0.87928516
0000f0 9d fe f4 3e 68 b5 61 bd 44 50 08 bd 9b e7 8c bd
       0.47850505 -0.055104643 -0.033279672 -0.06880113
000100 1f 76 3b bf 13 68 b5 bd aa 83 ae 3e 0d 88 23 3f
       -0.73227113 -0.08857741 0.34084827 0.6387947
000110 a7 10 f9 be 7d 27 ea be e1 b9 2d bf 7b c2 fd be
       -0.48645517 -0.45733252 -0.67861754 -0.4956244
000120 f8 4b c1 3d 4c 02 0d 3e 22 8d 2f 3f fb 79 29 bf
       0.09438318 0.13770407 0.68574727 -0.6620175
000130 ba 34 b2 3e a3 53 d1 3c e5 77 f2 be 32 35 7b bf
       0.34805852 0.025552576 -0.47357097 -0.98128045
000140 9a d0 80 3d 26 b1 d4 bd 67 a8 dd 3e 50 7f 57 be
       0.062897876 -0.10385351 0.43292543 -0.2104466
000150 1e f6 2f 3f 95 ac 0c bf 33 09 d8 be a5 9a 9e be
       0.6873492 -0.5495084 -0.42194518 -0.3097736
000160 2d 12 ae 3e 61 1f 06 bf dd 63 99 bd 8b 48 df bc
       0.33998242 -0.5239163 -0.074897505 -0.02725627
000170 0f 4f 92 3e a3 66 4b 3e dc ca e9 3e 1c 73 ca bd
       0.28575942 0.19863372 0.45662582 -0.098852366
000180 9c b9 b6 ba 55 09 ba 3e b2 63 86 bf 9e fe 32 3d
       -0.0013940814 0.36335245 -1.0499175 0.043699853
000190 c0 cd 05 bf 35 ef c6 bb bf 19 ee be e9 44 a4 bf
       -0.52267075 -0.006070996 -0.46504018 -1.283353
0001a0 12 a0 e3 be 13 f3 38 3e a1 0c fe bd ee eb 33 bf
       -0.4445806 0.18061475 -0.124047525 -0.70281875
0001b0 be 6d 15 bf b8 80 53 3f 4d de 4e bf 8d 92 1d bf
       -0.5837058 0.82618284 -0.80807954 -0.61551744
0001c0 64 82 74 3e 78 7d 8d 3e 41 18 79 be 96 f3 ea be
       0.23877865 0.27634788 -0.24325658 -0.45888966
0001d0 33 90 c2 be 04 34 d4 be 09 a9 e8 3e bc 1c 0b bf
       -0.3800064 -0.41445935 0.45441464 -0.5434072
0001e0 71 63 6e 3f cf b2 10 3f e8 5b 83 3f d9 71 25 3e
       0.93120486 0.5652284 1.0262423 0.1615671
0001f0 79 c9 ff bd 6b 22 d1 bd 63 50 23 bf 25 06 b5 3e
       -0.124896 -0.10211643 -0.63794535 0.3535625
000200 b9 1c 09 bf 12 61 8d bf 1c 90 2e bf 13 c5 76 be
       -0.5355945 -1.1045249 -0.68188643 -0.24098615
000210 21 0b 70 be bd 09 bb be 60 b1 80 3f 08 6d bb 3e
       -0.23441745 -0.36530867 1.005413 0.36606622
000220 05 53 78 3d 37 82 b0 be d0 4c 45 bf 26 c9 9d be
       0.06062605 -0.34474346 -0.7707033 -0.30817527
000230 73 73 0f be c8 8c 2f 3f a4 99 b1 bf fa b4 5d bf
       -0.14008884 0.6857419 -1.3875012 -0.86604273
000240 b4 bd 08 3e a4 62 9c 3d 69 7f 64 bd 05 24 6c bf
       0.13353616 0.07636002 -0.05578557 -0.9224246
000250 a4 15 ac 3e 7c fa 1f be ab 34 0c be be 65 49 bf
       0.3361026 -0.15622896 -0.13691966 -0.7867087
000260 48 bc 89 3e 18 e7 80 3c f1 ce 94 bf b8 cb cc be
       0.2690146 0.015735194 -1.1625654 -0.39999175
000270 11 b7 d7 3e 5f 8d 41 bf 29 66 6c 3f 68 a0 1c 3f
       0.42131856 -0.7560634 0.92343384 0.6118226
000280 04 25 20 3d e1 7e 17 bf c6 85 19 3e 73 83 e8 be
       0.0390978 -0.59177977 0.14992437 -0.45412788
000290 8d a9 6c be 06 a4 5d 3e 16 56 72 3e a1 b0 81 3e
       -0.23111553 0.21644601 0.23665652 0.2533007
0002a0 5c 58 01 bf 8d ea ac be 2a db c4 bc 33 9c f3 3e
       -0.5052545 -0.33772698 -0.024030287 0.47580108
0002b0 c5 54 db bc 10 7a b6 be aa 5a 51 be 06 01 a7 be
       -0.02677382 -0.3564 -0.20444742 -0.32617968
0002c0 62 f0 c3 3e 85 12 e3 be 53 5a 52 be 5d c6 bf be
       0.38269335 -0.44350067 -0.20542268 -0.37456027
0002d0 e5 a4 dd 3e cf 6d dd bd 55 98 af 3e 2f 90 3e 3b
       0.43289867 -0.1081196 0.34295908 0.002907764
0002e0 18 fa 49 3d 3c 6d 83 bf 43 a9 59 3b 22 10 c4 be
       0.049310774 -1.0267711 0.003321246 -0.38293558
0002f0 b2 b7 2a 3e 95 cb 85 bf 93 52 d0 bf 89 3f 08 bf
       0.16671637 -1.0452753 -1.62752 -0.53221947
000300 24 65 e3 3e 5f 3e d7 3e 11 fa 7a bf 7c 54 7a bf
       0.44413102 0.42039773 -0.9803782 -0.9778516
000310 f5 e1 8f 3e cb 70 77 be a6 39 2b bf 18 79 bc bf
       0.2810208 -0.24164121 -0.6688484 -1.4724455
000320 dc 66 9e be bb f4 c4 3e 1f 65 58 bf 6e 54 38 be
       -0.3093785 0.38467965 -0.845293 -0.18000957
000330 dc 4b 43 3f 75 f5 97 3f a9 6d a0 3e 65 cd 47 3d
       0.7628763 1.1871783 0.31333664 0.048779864
000340 76 d1 bb be 8d 00 d7 3e b6 a7 a6 3e 9f 93 70 bf
       -0.36683244 0.41992608 0.32549828 -0.9397525
000350 bf 26 84 be b9 dd 4f 3e b5 11 4c bf d6 45 67 3e
       -0.2581081 0.20299424 -0.7971452 0.22585234
000360 f2 aa 58 bf 10 09 c1 be f7 e7 f7 3e 37 86 9a 3e
       -0.8463584 -0.37702227 0.48419163 0.30180523
000370 b7 a9 ad bc d6 d7 1a 3e c5 9f e1 bc 10 f5 24 3e
       -0.02119909 0.15121397 -0.027542004 0.16109109
000380 dd fe a1 3e 9f 5f 3f be 12 d7 96 be ef 7a 00 bf
       0.31639758 -0.1868882 -0.2946096 -0.5018758
000390 c9 9e e1 3d 08 9d db be 2f 11 76 3f 1b 80 53 bd
       0.11016614 -0.42893243 0.9611997 -0.051635843
0003a0 88 4f b7 bd de f9 31 3e c4 97 88 3e 3a db f8 be
       -0.08950716 0.17380473 0.26678288 -0.48604757
0003b0 19 fb 14 be b5 d8 11 bf b5 51 2e 3f 93 ff 04 bf
       -0.14548911 -0.56971294 0.68093425 -0.51952475
0003c0 2d e9 9e bf a2 c5 61 be 82 20 ba bc 9d b4 92 bc
       -1.241491 -0.22048047 -0.022720579 -0.017908389
0003d0 ab 68 0d bf 02 de a3 bd e9 e5 ee 3d 6d 72 12 be
       -0.55237836 -0.08001329 0.11664946 -0.14301462
0003e0 57 5b d5 bd 3b 42 c0 be 4e 4c 23 bf ed d9 b8 be
       -0.10417812 -0.3755053 -0.63788307 -0.36103764
0003f0 dc ab ba 3c 6e 7e d4 be 0b ca 4b be 03 e5 59 be
       0.022787027 -0.41502708 -0.19901292 -0.21278767

conv2.bias f4 [32]
000000 54 eb 31 be 32 6f e5 3a 10 5a c6 bd f0 8c 1f bf
       -0.17374927 0.0017504452 -0.09685147 -0.6232443
000010 72 22 c9 bd b3 4e 98 be 13 7b d5 be 4c d0 43 be
       -0.09821023 -0.29747543 -0.4169546 -0.19122428
000020 be 04 d8 be 72 c1 a0 3d 3d fa 00 bf cf 28 02 bf
       -0.42191118 0.07849397 -0.50381833 -0.5084352
000030 23 7f 73 bd 22 54 b2 be 91 e5 56 be 3c e8 e9 3d
       -0.05944742 -0.34829813 -0.2098601 0.11421248
000040 e5 6f 5d be fe 30 b7 3c 64 85 ba bd 58 56 ff be
       -0.21624716 0.022362228 -0.091074735 -0.49870563
000050 90 b5 5e bf ad 07 75 bc db b9 14 be f8 5f 96 be
       -0.8699579 -0.014955443 -0.14524023 -0.29370093
000060 c3 ec 5e be 59 9d 16 be b4 e8 05 bf c3 74 9c be
       -0.21770005 -0.14708461 -0.523082 -0.30557832
000070 35 9d ae be 7d af 5e bd 2e 63 6c be f7 66 9d be
       -0.34104314 -0.054366577 -0.23084709 -0.30742618

conv3.weight f4 [32, 32, 5, 5]
000000 c3 08 11 bf 97 1f 83 3d 63 6d 13 3e d9 62 55 3e
       -0.56653994 0.0640251 0.14397196 0.20838489
000010 11 e3 7a bf 70 67 e5 be c0 8c eb 3e 75 03 aa 3e
       -0.98002726 -0.4480548 0.4600582 0.33205763
000020 6c 96 7b 3d fc 6c cd 3e 3d ef 4c bf cd 04 65 3e
       0.06142275 0.4012221 -0.8005255 0.22365113
000030 59 77 d0 be 44 e5 6c bf 09 86 04 3e 5e 88 45 bf
       -0.40716055 -0.9253733 0.12941755 -0.77161205
000040 15 12 89 3f e3 d2 d2 3e 61 7c 2f bd ae 54 00 be
       1.0708643 0.4117652 -0.042843226 -0.12532303
000050 3f be bd be e3 b5 81 3e 6a e4 9d 3e d6 ac a8 be
       -0.3705921 0.2533408 0.3083833 -0.32944363
000060 75 0d 72 3e a5 2b 39 bf 27 b9 e2 be ea 4e 47 be
       0.23637946 -0.7233222 -0.44281885 -0.19463697
000070 a5 df e4 3e 92 17 cb bc 74 06 5d bf ae ca 69 be
       0.44701877 -0.024791513 -0.8633797 -0.22831222
000080 93 a5 3a 3e 94 96 ff 3d 5e f2 c8 3e a6 9e 68 3e
       0.18227224 0.124798924 0.3924741 0.2271677
000090 58 3f 3b be 1e a6 26 bf 55 6b 44 3d 9d ab ed bd
       -0.18285882 -0.65097225 0.047953922 -0.11604998
0000a0 64 09 84 be 1e 51 64 bf 37 24 27 bc 91 f1 00 3f
       -0.25788414 -0.89186275 -0.010201505 0.503686
0000b0 ab 8a a9 3e 3c cc 5b be 1e 70 35 3e f0 9d 86 be
       0.33113608 -0.21464628 0.1771855 -0.26292372
0000c0 87 6e fa bc bd cf 38 bf f1 a2 b3 be 78 e0 14 bf
       -0.030570282 -0.72191983 -0.35085252 -0.5815501
0000d0 3a 9d f7 be eb 7c 4c bf 79 31 cb 3e 2c d1 81 3b
       -0.48362142 -0.7987811 0.39686182 0.003961703
0000e0 76 0d 88 3e 06 7b 98 3c c4 bb f7 be 2b 15 81 3e
       0.2657277 0.01861335 -0.4838544 0.25211462
0000f0 52 05 c4 3d 64 d8 b2 be ae 77 6d 3f 84 e2 02 bf
       0.09571327 -0.34930718 0.9276074 -0.51126885
000100 45 f1 ea bd 7f f0 36 bf 67 9d 06 3f ab 35 83 3f
       -0.114718 -0.7146072 0.52583927 1.0250753
000110 fb 8f 50 be de 05 ff be d0 fc 7e 3e 64 cc 85 be
       -0.20367424 -0.49809164 0.24901128 -0.261325
000120 16 1d 9a be d6 69 21 3e 36 b7 00 3f d5 5c 60 be
       -0.30100316 0.1576303 0.5027956 -0.21910413
000130 bc 0a 2b bd 3b 8d 9a 3e 0d 6b c0 3e 60 96 92 3e
       -0.041758284 0.30185875 0.37581673 0.28630352
000140 9e 3a e3 be 9c 80 17 bf cf 97 86 3e a4 6b 09 bf
       -0.4438066 -0.5918062 0.26287696 -0.5367987
000150 c0 cd 48 bd 77 20 39 bf 21 46 f7 be d5 3c 7b 3e
       -0.049024343 -0.7231516 -0.48295692 0.24534924
000160 65 b0 2c 3e 1e f4 c6 be 23 f1 8d be 4f 69 15 3f
       0.16864164 -0.38858122 -0.27723035 0.58363813
000170 7e 40 0e bf 63 60 ce be 56 07 e4 be e9 57 19 bf
       -0.5556716 -0.40307912 -0.44536847 -0.59899765
000180 55 e8 67 3e 07 55 83 bf d5 37 e0 bd b8 b9 74 be
       0.22647221 -1.0260323 -0.10948149 -0.23898971
000190 24 dc 99 be 47 df 06 3f 5e 12 76 bb c9 9e 54 bf
       -0.30050766 0.52684444 -0.0037547569 -0.83054787
0001a0 2d d4 0b 3f 91 ee e4 37 4e 29 48 be 26 29 8e 3c
       0.5462063 2.729081e-05 -0.19547006 0.017353605
0001b0 01 90 d9 be ae cc e3 3e b9 f6 a4 be 80 df 20 bf
       -0.4249268 0.44492096 -0.32219484 -0.62841034
0001c0 db 97 c2 be 8b bb 2a 3e f8 29 27 be be 05 06 bf
       -0.38006482 0.16673104 -0.16324604 -0.5235251
0001d0 45 5a 54 3e be 7f 62 3e b7 28 7a 3e a9 5e 02 bf
       0.2073756 0.22119042 0.24429594 -0.5092569
0001e0 87 64 e9 be 88 9b 6c 3f b2 54 98 3e e0 a8 5d bf
       -0.4558451 0.9242482 0.29752117 -0.8658581
0001f0 99 10 ad bd 6c 2b 91 3f 5d 15 9a bc 32 a9 59 3f
       -0.084504314 1.1341376 -0.018809015 0.85023797
000200 74 62 53 be 4b 51 da bd 14 c2 1e 3e 36 2a 55 bf
       -0.20643026 -0.10660037 0.15503722 -0.83267534
000210 40 48 4a 3e dd 19 9d be 02 c4 40 bf ce 00 31 3f
       0.19754124 -0.30683795 -0.75299084 0.6914185
000220 91 cc ea bd 89 f2 68 3f 4c c0 23 bf 5a 72 f5 3e
       -0.11464799 0.9099508 -0.63965297 0.47938806
000230 73 df 4a 3e a5 56 ac 3e a6 9d 3f be 3f 4f e7 3c
       0.19811802 0.33659855 -0.18712482 0.02823603
000240 7f fe b8 3e 42 d7 27 be 9d 19 14 be db dc 42 3f
       0.36131665 -0.16390708 -0.14462896 0.7611825
000250 01 f7 81 3f 62 b2 4b 3d e1 b9 3c bf d7 4a 0d bf
       1.0153505 0.049730666 -0.7372113 -0.5519232
000260 a8 4a 3f be 87 a9 52 bf 09 cd 4f 3e 67 d1 b2 be
       -0.18680823 -0.8228993 0.20293058 -0.34925386
000270 44 f7 81 bf 45 5b 15 bd 3b b6 24 bf 48 64 4e bf
       -1.0153584 -0.036463995 -0.6434056 -0.8062177
000280 63 39 86 bd 19 3e 03 bf f7 c1 f9 3e ce a8 15 bf
       -0.065539144 -0.5126663 0.48780796 -0.584607
000290 51 9e 89 3d 3f ba 16 bf 94 4b 91 3c d6 5d a7 3d
       0.067196496 -0.5887794 0.017736234 0.08172195
0002a0 95 6c af 3e c2 ab fe 3e 99 49 68 bf f4 0a 5f 3e
       0.3426253 0.49740416 -0.907373 0.21781522
0002b0 c9 4d d9 3e 51 ca 61 bf 23 b8 49 3f 30 a1 58 be
       0.42442158 -0.88199335 0.78796595 -0.21155238
0002c0 70 5f 1e 3e 04 86 31 bf a7 d5 04 bf 97 86 17 3e
       0.15466094 -0.69345117 -0.5188851 0.14797436
0002d0 03 65 62 3f ac c5 11 bf 66 9f 7f be c6 30 8c be
       0.8843538 -0.5694225 -0.2496315 -0.2738096
0002e0 d7 d5 06 3f 73 b3 35 bf 8f e4 0f 3f 60 cc cc 3e
       0.52670044 -0.7097694 0.5620813 0.39999676
0002f0 ec 53 93 3e ad 63 b3 3e 42 d4 23 bf b1 58 5a 3f
       0.28774965 0.35036984 -0.63995755 0.8529158
000300 53 1e 32 3f 78 cb 83 bd 9c 08 c4 3d f1 df a3 3d
       0.6957752 -0.06435293 0.095719546 0.08001698
000310 3d bc 09 be 68 81 2c bc 20 00 ba 3e e7 57 53 be
       -0.13450713 -0.0105289 0.3632822 -0.20639001
000320 d2 a4 a4 3f eb 09 0d be 74 c7 80 be 01 81 17 3e
       1.2862799 -0.13773315 -0.2515217 0.14795305
000330 64 aa cd bd 07 68 a1 3e 24 11 21 bf 28 9b d2 bc
       -0.10042265 0.3152468 -0.6291678 -0.02570875
000340 9a 32 ba bd 0b 6c d3 3d a1 22 37 3f a5 f5 d1 be
       -0.09091683 0.10323342 0.71537215 -0.41007724
000350 63 b6 64 be 9b e7 1c bf de 7e 33 3f b4 a7 e1 be
       -0.223352 -0.612909 0.7011546 -0.4407326
000360 74 90 de be 1b 4c 5e be d0 55 a4 bd 95 1c db 3e
       -0.43469584 -0.2170872 -0.0802418 0.42795244
000370 d1 a2 1c bf 3f 4a 88 bd 97 e0 37 bf a6 a1 2e be
       -0.6118594 -0.06654786 -0.7182707 -0.17053851
000380 28 67 9c be 07 7a 9a be 2f 57 7c be 57 3a 94 bf
       -0.30547452 -0.30171224 -0.24642633 -1.1580304
000390 4e e2 d7 bf e8 d5 1e 3e 52 b3 f9 3e dc c9 00 bf
       -1.6865938 0.15511286 0.48769623 -0.5030801
0003a0 4a 68 fb 3e 75 3b 23 bf b7 dc 31 be 76 26 8d be
       0.49103004 -0.637626 -0.17369352 -0.27568406
0003b0 c4 c1 75 3e 16 aa b5 be 4f 8c 6c be 98 1b 7b 3e
       0.23999697 -0.35481328 -0.23100398 0.24522245
0003c0 4c 53 ae 3e e0 5e 9d 3d 1f 3b 8d 3e 0e 3d 32 3e
       0.34047925 0.076841116 0.27584168 0.17406103
0003d0 f6 8d 6d 3e e8 bc 04 bf 1a e1 94 bf fe 23 9b be
       0.23198685 -0.5185075 -1.1631196 -0.30300897
0003e0 bd 07 d6 be 66 e6 c4 3e f7 c1 a8 3f 82 1e 33 3e
       -0.4180278 0.3845703 1.3184193 0.17492107
0003f0 6b 15 d0 be fc 08 1f 3f 59 78 73 bd ff b5 05 3f
       -0.4064134 0.62123084 -0.059440944 0.5223083

conv3.bias f4 [32]
000000 a7 d4 73 bf 4f 3a 42 bf 70 fb f4 be a5 3f 86 3d
       -0.95246357 -0.7587022 -0.47848082 0.06555108
000010 70 0e 52 bf 9a f7 51 3d c2 16 c3 be 69 a1 da 3d
       -0.8205328 0.051261522 -0.381033 0.10675318
000020 b5 46 6f be 2e 79 9c bd 22 ac 20 bf 32 1e 82 bf
       -0.23366816 -0.07640301 -0.62762654 -1.0165465
000030 a0 a6 83 bf ac 13 65 bf 16 e2 86 bf f3 b6 f5 be
       -1.0285225 -0.8948314 -1.0537746 -0.47991142
000040 25 21 85 bd c8 13 b4 be b4 72 c9 bf 8f 08 5d 3f
       -0.065004624 -0.35171342 -1.573813 0.86341184
000050 c8 47 6f bf 0c ed 82 bf a7 5f 3c bf 6f c5 5f bf
       -0.93468904 -1.0228591 -0.73583454 -0.87410635
000060 14 2d cd be 18 1f 4d bf 55 03 6f bf 62 ad 0b bf
       -0.40073454 -0.8012557 -0.9336446 -0.54561436
000070 2a 84 8f bf 7f c1 0e bf e9 e5 71 bf b3 f5 71 bf
       -1.1212208 -0.55764 -0.9449144 -0.9451553

conv4.weight f4 [32, 32, 5, 5]
000000 63 02 6a 3d e2 4a 03 bf 76 b5 1c 3f 1a e7 45 bd
       0.057131182 -0.5128614 0.6121439 -0.0483161
000010 92 6c 95 3e c0 65 90 bf 47 b3 0d 3f b5 29 19 3f
       0.29184395 -1.1281052 0.5535168 0.59829265
000020 5e d2 31 3e 48 5e 0c 3f db b9 26 bd 08 a3 0f be
       0.17365405 0.5483136 -0.04070459 -0.14027035
000030 a6 d0 35 3f 2a 8b 6e 3e ff 32 07 3e 15 90 7f bd
       0.710215 0.23295274 0.13203047 -0.062393267
000040 54 40 cd be 77 49 02 be 8d 99 55 bf 40 91 a3 bf
       -0.4008814 -0.12723337 -0.83437425 -1.2778702
000050 cb e7 22 be 7f 23 ec 3e 49 34 a1 be d3 6d 36 bf
       -0.15908735 0.4612083 -0.31485203 -0.7126133
000060 51 af 15 bf 36 8a 21 3f 34 49 cf be da 30 83 3e
       -0.58470637 0.6310152 -0.40485537 0.25623208
000070 be 4d ac be 95 0b c1 3e c4 68 15 3f 32 64 76 3f
       -0.33653063 0.3770415 0.58362985 0.96246636
000080 4e 3d 09 bf c2 2e 19 be 65 a3 ab be cd 54 bd bb
       -0.5360917 -0.14959243 -0.33523098 -0.0057779313
000090 5d 77 53 bf 1f 9b 4d 3c 91 4f ac be 60 54 bf be
       -0.8260401 0.012549191 -0.33654454 -0.3736906
0000a0 d4 d3 ba be 7f 91 81 3f d0 1a 57 3f 96 dd 86 3e
       -0.36489737 1.0122527 0.8402529 0.26340932
0000b0 dc df 12 bf 9e bd 15 3e 33 5b c7 bd a3 b2 0c bf
       -0.5737283 0.14623114 -0.09734192 -0.5496008
0000c0 42 89 67 3f bd 71 80 3d 9c 39 ae 3e e3 4d 26 bd
       0.90443814 0.06271694 0.34028327 -0.040601622
0000d0 14 9b c5 bd 8d 8a 77 be 3a 36 62 3f 22 0f 17 3f
       -0.096487194 -0.24173947 0.88363993 0.59007466
0000e0 78 6a 0f 3f b2 59 c6 bd eb 57 35 bf b9 c9 be bf
       0.56021833 -0.09685077 -0.7083728 -1.4905311
0000f0 37 eb d2 be 26 69 c9 be c5 f7 e6 be e1 49 42 bf
       -0.4119508 -0.39338034 -0.45110908 -0.7589398
000100 51 b0 9c 3d 5d f3 54 bd d5 d2 8a be 51 31 a6 be
       0.07650817 -0.0519899 -0.27113977 -0.324595
000110 0d cf dc bd 0a 83 98 be 3b da bb 3e bc 92 48 bf
       -0.10781679 -0.29787475 0.36689934 -0.783489
000120 2c 96 52 be f6 3b 27 3f b7 61 99 3e ab f0 b5 be
       -0.20565099 0.6532587 0.29957363 -0.35535178
000130 02 b8 c8 bd 48 e8 99 3f 3a 02 26 3d 0c 4d d8 3e
       -0.09800722 1.2024012 0.040529467 0.42246282
000140 9a f7 47 bf 99 ba a7 bd 16 72 9d be de fe d8 be
       -0.78112185 -0.081898876 -0.30751103 -0.42381948
000150 f3 4c 1e bf f0 dd 14 3d 09 92 ca 3e 59 16 1e 3c
       -0.61836165 0.03634447 0.3956454 0.009648883
000160 ec 53 2a 3f fd be bb 3e 3d 43 eb be 0b 0c 49 3f
       0.66534305 0.3666915 -0.45949736 0.78534
000170 23 7b 1f bf 55 26 09 3f 78 6f 23 3f f7 12 1d bd
       -0.62297267 0.53574115 0.6384196 -0.038348164
000180 55 fc 94 3e a3 08 1c 3e 39 77 fe be 0a 4a 2a 3f
       0.29098764 0.1523767 -0.49700335 0.66519225
000190 2f 69 6e 3f 51 8a 74 3d 2d 32 cd 3d 91 70 4c 3f
       0.9312925 0.05970222 0.10019336 0.7985926
0001a0 43 69 c1 3d 76 0c 84 3d 6e 84 0e bc c3 0f bc be
       0.09443905 0.06447689 -0.008698566 -0.36730775
0001b0 db ee c2 be a9 f8 80 bd f5 c9 de be e6 f5 0f be
       -0.38072857 -0.06297428 -0.43513456 -0.14058647
0001c0 7e 06 19 bf 16 c1 02 bf 89 47 2a be fc 56 06 be
       -0.5977553 -0.51075876 -0.16628851 -0.1311912
0001d0 c9 4f 44 bf 3b 17 1c bd 41 71 c6 bd 46 d5 6e bf
       -0.7668424 -0.03810809 -0.0968957 -0.9329418
0001e0 72 b5 a9 be 0a 24 7b be 90 1c d3 bd 8a 7c 9b 3e
       -0.33146244 -0.24525467 -0.10308182 0.30368453
0001f0 4b 3e 70 3d bc 19 d2 be 14 ee 93 bd eb d3 d1 be
       0.058653157 -0.4103526 -0.07223144 -0.40981993
000200 ef 1f 74 be a8 65 dc be 5c 2c 51 bd a9 cd 8e 3e
       -0.23840307 -0.43046308 -0.051067695 0.2789128
000210 37 8a 81 be 4e a7 06 3e ba 3d 1f be 45 a1 13 bf
       -0.25300762 0.13149759 -0.1555089 -0.5766795
000220 e9 05 12 3f bc 40 8a 3e b9 4c db be 63 6b 9a bd
       0.5704027 0.27002513 -0.42831972 -0.07540014
000230 28 66 34 be 2d 25 39 bc f1 63 4e 3e c1 ea 49 bf
       -0.17617095 -0.011300367 0.20155312 -0.7887383
000240 8d d9 3b bf c7 a2 12 bd ea 6f 8f bf a4 6c 81 be
       -0.7337883 -0.035799768 -1.1206028 -0.252782
000250 d5 c2 54 bc 60 89 5d bf 91 96 61 3e 3e b7 b8 be
       -0.012985905 -0.8653774 0.22030093 -0.36077303
000260 76 96 26 be c6 61 8e be e4 ca e1 3e 0a f1 07 3f
       -0.16268334 -0.2780897 0.44100106 0.5310217
000270 26 60 be 3d c1 c4 13 bf bb 4c 79 bd 1b 43 bc 3e
       0.092956826 -0.577221 -0.06086419 0.36769947
000280 cb 40 b0 3e 73 34 58 be a8 b8 a4 3e 35 0d 95 bf
       0.34424433 -0.21113758 0.32172132 -1.1644655
000290 e7 85 d4 3d bd 5d 34 bd 92 fb 08 bd 20 61 e7 3d
       0.10377102 -0.04403471 -0.03344304 0.11297822
0002a0 73 37 dc be ab c5 82 be 66 ef 62 bf 4a 71 69 be
       -0.43011054 -0.25541434 -0.88646543 -0.22797123
0002b0 00 3d e2 3d 66 20 1a bf c9 2f c7 3e 74 3a 97 be
       0.11046791 -0.60205686 0.38903645 -0.29536784
0002c0 dd 11 96 3e 53 ca bd 3d e9 8c 67 3d 7e e7 1e bd
       0.29310504 0.09267106 0.056530867 -0.038794987
0002d0 5a 53 00 3f c6 82 58 be dc 77 f9 be a3 d8 c5 3e
       0.50127184 -0.21143636 -0.48724258 0.38641843
0002e0 2f 08 6a bf 9d 6e 9a bf cf ab 46 3d bd 7b 59 3f
       -0.9141874 -1.2065006 0.048503693 0.84954435
0002f0 59 c6 b0 3e 38 1f 2e bf 69 82 14 bf 8f 1f 06 3f
       0.34526327 -0.68016386 -0.5801149 0.52391905
000300 8b dc ed be b4 03 7f 3f ed ad 51 3e fa 36 b5 3e
       -0.46457323 0.99615026 0.20476504 0.35393506
000310 0c 98 8a 3e b0 71 64 3d d9 a1 a7 be 4b 99 a0 3e
       0.27069128 0.055772483 -0.32740667 0.31366953
000320 97 32 25 3e 99 98 a2 bf 21 91 54 3f d0 f6 21 be
       0.1613258 -1.2702819 0.8303395 -0.15816808
000330 50 9f 2b 3e f0 17 f8 3e 0b ed 4c 3f ee 15 81 be
       0.16759992 0.48455763 0.800492 -0.25212044
000340 77 4d 88 bf 45 69 dc bd 44 c6 61 3e c4 6d 8d be
       -1.064864 -0.10762266 0.22048289 -0.27622807
000350 ec e0 07 bf 3c 99 04 3e 7f c0 f4 3d a4 5d 2d bf
       -0.5307758 0.1294908 0.11950778 -0.6772101
000360 09 5e 48 3d af 91 a8 3e 58 e4 dc 3d ae 2b 07 bf
       0.048917804 0.32923648 0.107857406 -0.52801025
000370 1a 98 56 be a4 44 00 3e 9b 76 c4 3e 14 f2 c6 3d
       -0.2095646 0.12526184 0.3837174 0.097141415
000380 d7 9f d8 be 60 85 28 3f 76 4d d0 3e 17 38 99 be
       -0.42309448 0.65828514 0.40684098 -0.29925606
000390 cf 66 ce be cf bf e7 3d f3 9e e8 3e 91 9f 3d 3e
       -0.40312812 0.113158815 0.4543377 0.18517901
0003a0 db f2 93 3c 01 da 7a be 4b a2 09 bf 60 7c 21 3e
       0.018060138 -0.24497224 -0.53763264 0.15770102
0003b0 c9 e8 a3 bf f9 37 3a be 1f ed 7a 3c db 84 82 3e
       -1.2805415 -0.18185414 0.015315323 0.25491986
0003c0 3a 2a 3b 3e 54 fa d7 be f8 95 2f bf 2a a6 d2 be
       0.18277827 -0.42183173 -0.6858821 -0.41142398
0003d0 5d e6 57 bf 2a 5b 40 be f5 88 ea 3e 43 8c 77 3e
       -0.8433588 -0.18784776 0.45807615 0.241746
0003e0 a4 62 ac bf 4e 48 b1 3e d8 4e 03 3f 7a 99 d8 be
       -1.3467603 0.34625477 0.5129218 -0.42304593
0003f0 76 07 0f 3d cd 9f bf 3e 61 6d 42 be 45 f6 8c 3f
       0.034919225 0.37426606 -0.18987037 1.1012655

conv4.bias f4 [32]
000000 15 29 6a bf 63 99 ff 3e c3 62 3d bf 0b 69 22 bf
       -0.91468936 0.49921712 -0.73978823 -0.6344153
000010 ba 2b 83 be 4e ce f5 3e ce 6e 1b be f7 e1 43 bf
       -0.25619298 0.4800896 -0.15178987 -0.7651667
000020 8c bb 89 bf 00 f9 92 3d 70 69 84 bf 0f c8 20 3f
       -1.076036 0.07176399 -1.0344677 0.62805265
000030 f8 6b a0 bd 8b 4a fc be ab 74 f8 be 89 aa 03 bf
       -0.078330934 -0.49275622 -0.4852651 -0.5143209
000040 ef 1f 9c be a7 a4 fe bc 7a 50 da 3e ee 0b 04 be
       -0.30493113 -0.031084372 0.42639524 -0.12895176
000050 5d 1c 3e be c1 ad 6b bf c6 dc 1c bf a3 fe 23 bf
       -0.18565507 -0.92062 -0.61274374 -0.6406042
000060 05 19 71 3e 15 44 16 3e a6 99 34 3f 44 77 1d bf
       0.235447 0.14674409 0.7054695 -0.6151011
000070 45 25 48 3f d5 03 b3 3f f8 6d c8 be 78 74 ad 3e
       0.7818187 1.3985544 -0.391464 0.3387792

conv5.weight f4 [32, 32, 5, 5]
000000 f5 f0 69 bf 76 e7 af 3e 9d 59 8b 3e 37 ac f2 3e
       -0.91383296 0.34356278 0.27216807 0.47397014
000010 ca 74 80 3e 02 13 25 bf b9 76 63 3e d5 81 db bd
       0.25089103 -0.6448213 0.22213258 -0.10718123
000020 c7 ed 14 bf f3 95 47 3f 37 fa 14 3f e7 1e 0c bf
       -0.5817532 0.7796318 0.581943 -0.54734653
000030 a5 3f 77 3e e6 9e 83 bd 03 c0 25 3f ad 07 61 3f
       0.24145372 -0.06426792 0.6474611 0.8790234
000040 39 e8 15 bf b3 0f a8 be 81 51 b2 3d 2f 89 4c 3e
       -0.5855747 -0.32824478 0.08706952 0.19974206
000050 bb b2 9c bc 63 ec 92 bb 83 dc 82 3e 13 1a b4 be
       -0.019128194 -0.004483746 0.25558862 -0.35176143
000060 af 54 02 bd fe fc 22 3f f7 e6 de 3e d8 cb a1 3e
       -0.03181904 0.63667285 0.43535587 0.31600833
000070 3a 7b 1b bf b0 72 78 bf 7b 54 27 bd 75 d1 1d 3f
       -0.60734904 -0.9705 -0.04085205 0.6164773
000080 b9 ad e0 be 24 09 0d 3f e7 52 29 3e 16 a6 1f be
       -0.4388254 0.5509207 0.16535531 -0.155907
000090 d5 9e 6c bf ec de 26 be 13 a6 2f bf ce 68 89 be
       -0.9242986 -0.16295975 -0.68612784 -0.26837772
0000a0 13 9f 4b 3e e3 65 b3 be 2b 6e 24 bf 45 fe 80 bf
       0.19884901 -0.3503867 -0.642306 -1.0077597
0000b0 ae ef c4 3e fc be 21 bf db 1d 8c bf 05 cc 50 be
       0.3846411 -0.63182044 -1.0946611 -0.20390327
0000c0 18 40 4e bf d1 ff b8 3e e7 b6 a2 be e3 97 1d bf
       -0.8056655 0.36132672 -0.31780168 -0.61559886
0000d0 d2 06 5f 3e 43 78 68 3e 0c 5f c9 3e 62 90 bb be
       0.21779945 0.22702126 0.39330328 -0.36633593
0000e0 f7 39 5c bf 7e 24 59 3f 17 eb 1a 3f 83 56 c0 3e
       -0.8602595 0.8482131 0.6051497 0.37566003
0000f0 5f 67 c3 be 71 b6 21 3e 47 5f 92 be 21 ee 93 3e
       -0.38164803 0.15792252 -0.28588316 0.28892615
000100 22 dd 87 bf db e3 3a be 1f 45 a2 3e 42 e5 22 be
       -1.0614359 -0.18250982 0.3169336 -0.15907767
000110 13 d3 58 3e 94 67 56 be 62 48 1c 3f 67 95 71 be
       0.21174268 -0.2093795 0.6104795 -0.23592149
000120 df 43 aa 3f af 65 c3 be dc ea 8b bd ee 26 8d bf
       1.3301963 -0.38163516 -0.06831905 -1.1027505
000130 03 e0 df bd e1 83 97 3d 8e 28 11 3e 99 0f b1 be
       -0.10931399 0.07398201 0.14175627 -0.34582213
000140 d9 04 31 3e 9c 0b 6f bd e2 3b 8a 3d 8a b0 55 be
       0.17287005 -0.05836068 0.06749703 -0.20868126
000150 1a 96 22 3e 9b cf 7f 3d d7 0b f8 3e be c8 0e 3f
       0.15877572 0.062453847 0.48446533 0.5577506
000160 f0 c0 8e 3e 34 0b bb bc d8 46 1c 3e de 4f 82 3f
       0.27881575 -0.02283249 0.152614 1.0180624
000170 dc e2 56 bf 4b 34 45 bf 7a 94 0a bf b6 0e aa be
       -0.8393991 -0.7703292 -0.5413281 -0.3321435
000180 36 57 b3 be 76 05 9a 3e e6 7a 92 3e 1a 14 a2 3d
       -0.35027474 0.3008229 0.2860939 0.0791399
000190 c3 46 a0 3e 9f cc 29 bd d7 a6 a8 bf c6 93 a2 be
       0.31303987 -0.041454908 -1.3175915 -0.31753367
0001a0 ee bc 14 bf 78 49 48 be f3 1f cb 3e f8 c4 40 bd
       -0.58100784 -0.19559276 0.39672813 -0.047062844
0001b0 0d c3 5a bc 81 da 53 3e 27 0a 07 3e 9b 01 21 be
       -0.013352168 0.20688821 0.13187467 -0.15723269
0001c0 73 61 8b be 2f b6 81 be 3f e2 4d 3f b1 85 a4 3e
       -0.27222785 -0.25334308 0.8042335 0.32133248
0001d0 eb b3 a8 3d 3a 46 bc 3e cf d6 df be 39 19 37 3e
       0.08237442 0.3677233 -0.43718573 0.17880715
0001e0 97 75 9b 3d 9d 11 97 bf 44 3c 62 be a1 87 7f bf
       0.07590788 -1.180225 -0.22093302 -0.9981633
0001f0 9c 37 16 3d 0f 84 48 3d c7 01 61 3e 04 8b fd be
       0.036674127 0.048954066 0.21973334 -0.49520123
000200 7c b9 aa be db ef 58 bf be c6 b6 3b d9 c9 f0 3e
       -0.33344638 -0.8474099 0.005577891 0.47028998
000210 46 b6 46 3f a5 48 c0 be d1 95 c5 3d 05 d6 37 3e
       0.7762188 -0.37555423 0.09647716 0.17952736
000220 17 d1 d1 3e 8c 49 22 3f 7e 62 07 be 45 06 2c 3e
       0.40979835 0.63393474 -0.13221166 0.16799267
000230 8f e6 f9 3e ae e5 1d bf e4 e3 43 bf ae 6b ba be
       0.48808715 -0.6167859 -0.7651961 -0.36410278
000240 de 34 ba bd f1 31 36 bf ba 10 3d bf 05 bb cd 3c
       -0.09092115 -0.71169955 -0.7385365 0.025113592
000250 36 55 07 3d 85 58 2f bd 7d 41 bb be 23 f7 98 be
       0.033040248 -0.04280903 -0.365734 -0.2987605
000260 bb 9a f6 3e 9b 51 04 3f a0 d3 22 bd af 1e 9b 3e
       0.48164925 0.5168702 -0.039752603 0.30296847
000270 60 6c 9c 3e b7 cc e7 be 02 9a af be 06 45 ec 3e
       0.30551434 -0.45273373 -0.34297186 0.4614641
000280 26 4c 03 3f 7d c2 37 3e ba 73 9e 3e 42 88 f5 3e
       0.5128807 0.17945285 0.30947667 0.4795552
000290 f3 e9 64 be ab e2 af 3e db 0b ad be 8a ea 5c 3e
       -0.2235487 0.3435262 -0.33798108 0.21573845
0002a0 10 d9 c2 3e 8c cc cb be b8 db 88 3d fa 5d ec 3e
       0.3805623 -0.39804494 0.06682533 0.46165448
0002b0 0c bc 96 be 1c 2b 40 be 86 8e bf 3d db ff 61 be
       -0.29440343 -0.18766445 0.09353356 -0.22070257
0002c0 10 80 07 bf 02 e0 fc be b2 c8 74 bf 20 82 73 3e
       -0.5292978 -0.49389654 -0.95618737 0.23780107
0002d0 8b 0a c6 3e f4 97 55 be 3e 18 71 3f b1 21 4e be
       0.3867992 -0.20858747 0.94177616 -0.2013004
0002e0 95 1a 7d bf 38 3b 3d 3d 5d 40 46 bf f9 b9 ca 3d
       -0.98868686 0.046199054 -0.7744196 0.09898753
0002f0 80 6d 62 be 18 33 3e 3f 91 b0 14 3f d3 9f 61 bd
       -0.22112083 0.7429671 0.5808192 -0.05508406
000300 71 57 d4 3b 72 1d ec bc be dd 3f 3d 18 67 3a be
       0.0064801504 -0.028822634 0.04684233 -0.1820339
000310 4c aa b6 3e a9 ad 32 bf 08 f4 ef be c1 82 19 3f
       0.356768 -0.69796234 -0.4686587 0.5996514
000320 dc b3 27 bf 60 9a 04 3f ed 62 64 3f d1 3e 0c be
       -0.6550882 0.5179806 0.8921345 -0.13695838
000330 72 6a 17 3f d2 1b 7e be b6 c3 89 bf 1f 76 8a be
       0.591468 -0.248153 -1.0762851 -0.27043244
000340 f7 7a 9b 3e e0 63 5d 3f 09 68 0b 3d 6c eb 90 3c
       0.30367252 0.8648052 0.034034763 0.017690383
000350 73 c9 0b 3f 6d d4 96 be 1e 86 a0 be ca c5 1c 3d
       0.5460426 -0.29458943 -0.31352323 0.038274564
000360 1b 12 51 be a9 7b 84 bd de bd 02 bf 41 ce e8 3d
       -0.20417063 -0.06468899 -0.51070964 0.11367465
000370 53 bb 57 3f 32 6a a7 be 7d e6 12 3f 87 3a 5d 3d
       0.8427021 -0.32698208 0.5738295 0.054010894
000380 f8 1a 36 3f 40 77 6b 3e 38 3f 22 3f 3f 4c da be
       0.711349 0.22994709 0.63377714 -0.42636296
000390 9e 05 64 3d 00 b0 e7 be 78 bc 9f 3e d5 4a aa bc
       0.05566942 -0.45251465 0.31198478 -0.020787636
0003a0 8b f1 a7 be cc ac fc bd 04 ff 8d bd af ed af 3d
       -0.3280147 -0.12337646 -0.06933406 0.085902564
0003b0 51 b4 bb be d1 43 42 be 6a e4 ed 3e 6d 7b fe 3c
       -0.36661008 -0.18971182 0.4646333 0.031064713
0003c0 ff 9c 91 3e 38 44 57 be a7 50 8a bf 46 06 ed 3e
       0.2844009 -0.21022117 -1.0805863 0.4629385
0003d0 32 14 2c 3c c8 e4 94 3e b6 e7 a7 3e 2d 4c 85 bf
       0.010502862 0.29080796 0.3279397 -1.0413872
0003e0 63 ba 56 be a0 1e 8c bf aa 34 ae be 1a 26 20 bf
       -0.20969538 -1.0946846 -0.34024554 -0.6255814
0003f0 5f 4e 63 3e c7 f0 28 bf d6 f7 93 bf d3 96 ae 3e
       0.22197865 -0.659924 -1.1560009 0.34099445

conv5.bias f4 [32]
000000 5b 42 e9 be e0 6f d2 be fe 68 d4 3e 14 7f c5 3c
       -0.45558438 -0.4110098 0.41486353 0.024108447
000010 44 8a 40 3f e9 04 6f be 42 0b f2 bf 0b b0 c4 bf
       0.75210977 -0.23341717 -1.8909686 -1.5366224
000020 a0 f3 89 bf fe 58 f5 be e1 17 c5 bf e2 83 c0 be
       -1.0777473 -0.47919458 -1.5397912 -0.3760062
000030 4e b1 54 be c3 b8 82 3e 84 e6 35 bf d5 41 80 bf
       -0.20770761 0.25531587 -0.71054864 -1.002009
000040 fd bc 66 3d e5 88 8f bf 90 e5 c2 3e 83 2a 24 bc
       0.056332577 -1.1213652 0.38065767 -0.010019901
000050 e8 ae a4 bf 40 35 b5 3f e5 1b 55 bf 77 29 cb be
       -1.2865877 1.4156876 -0.8324569 -0.39680073
000060 24 a2 e3 bf 0a 9b 4b 3e 2f 00 77 bf 2c 0d 1c bf
       -1.7783856 0.19883361 -0.96484655 -0.609576
000070 fe a7 26 be 6a 58 b4 be 9f 36 fa be e0 31 a1 3f
       -0.16275021 -0.35223705 -0.48869798 1.2593346

conv6.weight f4 [32, 32, 5, 5]
000000 47 ce d3 3d c7 b7 54 bf 61 af 19 be eb b5 e1 be
       0.10342079 -0.8309292 -0.15008308 -0.44084105
000010 63 ae 86 bf b8 79 49 bd af db 82 3e d5 58 15 bf
       -1.0521969 -0.049188346 0.2555823 -0.5833867
000020 e9 7d ef 3e 85 35 42 bf bd 98 3c be ce ff 9e 3d
       0.4677575 -0.75862914 -0.1841764 0.077636346
000030 4b 31 9e be 12 bc 89 3f 0d 13 f2 be bf 45 f3 bd
       -0.30896983 1.076052 -0.4728016 -0.118785374
000040 a6 4a 14 be b0 b9 51 3e 9b cd e4 be ee 8a 0f be
       -0.14481601 0.2048099 -0.44688115 -0.14017841
000050 ba 22 b2 be 54 ac a2 bd 2a 64 31 bf d8 35 68 3e
       -0.3479212 -0.07943025 -0.69293463 0.2267679
000060 d4 f2 10 3e 47 ef 76 bf 52 df 9a bd 04 a9 0d bf
       0.14155132 -0.9645886 -0.07562126 -0.5533602
000070 00 e7 89 bd db d2 3e bf 4e d4 80 be 2c 56 ff be
       -0.06733513 -0.7454049 -0.25161976 -0.4987043
000080 39 e6 d2 3e 92 29 3f 3d aa d0 b1 3e e4 a2 4b bf
       0.4119127 0.046670504 0.3472951 -0.79545426
000090 f5 fa 05 bf 40 a0 c2 be bc c5 72 be ef 03 2f bd
       -0.52336055 -0.38012886 -0.23708242 -0.04272836
0000a0 fa aa f2 bd 27 cc 44 be 7a b8 8e 3e 14 5b a7 be
       -0.118490174 -0.19218503 0.2787512 -0.32686675
0000b0 89 57 2b 3f e8 10 c4 3d d8 1a b4 3e 5d d5 49 be
       0.66930443 0.09573537 0.3517673 -0.19710298
0000c0 27 9d 7e 3d a1 ec 86 3e 7b df 06 3f 56 aa df 3e
       0.06216159 0.2635241 0.52684754 0.43684644
0000d0 6b f7 8d 3e f1 c7 9d 3d 93 a5 80 3e af d7 99 be
       0.27727827 0.077041514 0.25126323 -0.30047366
0000e0 23 09 5c bf a5 d2 e2 be 5e d7 8d be 1c c1 48 3e
       -0.8595144 -0.44301334 -0.27703375 0.19604915
0000f0 4c a1 2a 3d 6d 3e 33 3f fd 0c 8e 3e 03 20 21 be
       0.04165773 0.7001713 0.27744284 -0.15734868
000100 ec de d4 3e e4 10 71 be c7 01 d9 3e 20 22 bc 3e
       0.41576326 -0.235416 0.42384169 0.36744785
000110 15 a9 04 3e f4 2a e0 3e 77 18 23 be 29 74 bf bd
       0.12955125 0.4378277 -0.15927301 -0.09348328
000120 11 f7 bd 3d 56 63 4f be fe 6b a3 3e 21 c7 13 3d
       0.0927564 -0.20252737 0.3191833 0.036078576
000130 2b 22 78 be 4c ab c7 3b a3 99 c3 be a2 64 3e 3e
       -0.24231784 0.006093418 -0.38203153 0.18593076
000140 07 40 14 3d 45 e2 56 bf 09 61 78 3d 5f d1 c7 3d
       0.036193874 -0.8393901 0.060639415 0.09756731
000150 c0 a8 9d 3d e9 bf 95 3e d1 d6 aa 3d 88 06 48 be
       0.07698202 0.29247978 0.08341754 -0.19533741
000160 2a f8 8c be 4f 76 8f bc 7b 19 03 3f 12 f9 42 3f
       -0.27533084 -0.017512469 0.51210755 0.761613
000170 ca 1d 6a be 44 7b 6c 3d 02 0d 55 be 38 3c 29 bf
       -0.22862926 0.057734743 -0.20805743 -0.6610751
000180 33 8a 53 be 8e 44 9a 3d fa c0 59 3e 0e a2 c9 be
       -0.20658188 0.07532607 0.21265021 -0.3938145
000190 11 0a 24 bf 25 7d 55 bf 84 61 d0 3e c7 16 6e 3e
       -0.6407786 -0.8339408 0.406994 0.23250876
0001a0 ac 03 ee bd 8b 98 81 be cf 54 33 bf 01 eb e5 bd
       -0.11621794 -0.25311694 -0.7005128 -0.11226464
0001b0 8f a3 6c bf 8c 1b 86 bf 86 a7 52 be ed c1 f5 3c
       -0.9243707 -1.0477157 -0.20571718 0.029999698
0001c0 42 e5 86 3e 68 fb 5c 3c a0 04 0b 3f 97 1a 41 3f
       0.26346785 0.013487674 0.5430393 0.754312
0001d0 18 da c7 be dd cf c2 3e 12 06 e6 bd fb 22 97 3d
       -0.3903358 0.38049212 -0.112316266 0.07379719
0001e0 81 0c ec be 85 5e 2d 3e 2d 69 12 3f 1b 2e 2d 3e
       -0.4610329 0.16930588 0.57191736 0.16912119
0001f0 3c 26 d7 3e 3b fd 13 bf 47 63 1a bf 02 5c d5 bd
       0.42021358 -0.57808274 -0.60307735 -0.1041794
000200 6b 8c ba 3d c4 c1 a8 be f2 4e 50 3e 84 d9 4f bf
       0.09108814 -0.3296033 0.20342615 -0.8119128
000210 a7 70 49 3f 2f 02 cb 3d 95 c8 bd be e1 35 11 be
       0.7868752 0.09912526 -0.37067094 -0.1418071
000220 0d 9d 03 bf 17 f3 ca 3d 93 18 f3 bc 9b 4e 40 bf
       -0.51411515 0.09909647 -0.029674804 -0.7511994
000230 a5 fd 20 bf 5a 91 bd 3e 56 dd 18 3f 2b cb c8 3e
       -0.6288703 0.37024957 0.5971273 0.39217505
000240 2d c8 74 3d 6e 81 44 bf e0 4e ac 3e 16 f9 a6 be
       0.059761215 -0.76759994 0.33653927 -0.32611912
000250 d0 9e 1b 3e 02 cb 65 be 76 f3 0d bf c7 6b 20 bf
       0.15197301 -0.22440723 -0.55449617 -0.62664455
000260 f5 f5 03 bf 58 27 ee 3e 9d 0a 3a bf 4a 0d 9e be
       -0.51547176 0.46514392 -0.72672445 -0.30869514
000270 33 23 12 bf 6d 3c f4 be e2 d8 93 3e 0f 1f 8e bf
       -0.5708496 -0.4770235 0.28876406 -1.1103228
000280 68 10 22 bd d8 6c ec be ec ea 6e be fc 4e 8d be
       -0.039566427 -0.4617679 -0.23331803 -0.27599323
000290 fe d4 ff be 6e 8a ad 3e 60 15 7f bf cd 60 87 be
       -0.49967188 0.33894676 -0.9964199 -0.2644104
0002a0 50 77 d8 3c 8b e1 1c 3e 0f 53 f8 be 04 7e ba 3c
       0.02642408 0.15320413 -0.4850087 0.022765167
0002b0 48 af 05 3e c8 a7 88 be ce d7 23 bf 1b f0 0f bf
       0.13055146 -0.26690507 -0.64001167 -0.56225747
0002c0 27 18 62 3e 66 05 86 bf 77 a2 89 bf 0c df 81 be
       0.22079526 -1.0470397 -1.0752705 -0.25365484
0002d0 7c e0 64 bf a6 a7 64 be 0d 8e 9d be 0f e6 77 bf
       -0.89405036 -0.22329578 -0.3077244 -0.96835417
0002e0 38 cd cd be dc 59 ec 3e 3a fe fd be 37 85 0b bf
       -0.40195632 0.46162307 -0.49608022 -0.54500145
0002f0 38 3e 26 bf a1 b7 10 bf 60 4c d6 3b 0e fd a0 be
       -0.6493869 -0.56530195 0.0065398663 -0.31443065
000300 53 3c 7a be e3 ae 4d be e4 55 57 bf 54 68 ea 3d
       -0.24437074 -0.20086245 -0.84115434 0.1144568
000310 5b 62 32 bf c9 00 ad be 72 89 80 bd 97 19 f5 bd
       -0.6968133 -0.33789662 -0.062762156 -0.119677715
000320 82 34 6c be 28 8f 27 bf dc f7 5d 3d 8d d5 f2 3e
       -0.23066905 -0.65452814 0.054191455 0.4742855
000330 9f ec e3 be 99 b4 23 3f 7e 77 36 bf 50 2c 28 bf
       -0.44516465 0.63947445 -0.7127608 -0.65692616
000340 a0 a8 8d 3e d5 09 6c bf 93 cb 31 bf db 29 06 bf
       0.27667713 -0.922025 -0.69451255 -0.52407616
000350 bb fc 57 3e 98 fa 42 be 9c 81 19 bf ce c7 06 bf
       0.21092503 -0.19040906 -0.59963393 -0.5264863
000360 2c 2b 92 be 5a b8 b3 3e 80 4e 63 3e 63 36 54 3d
       -0.28548563 0.35101587 0.22197914 0.05180968
000370 cd c9 96 bd d6 32 0d be ec e6 20 be 59 f1 b6 be
       -0.07362709 -0.13788924 -0.1571309 -0.3573101
000380 06 96 8d be ae a1 ca bd 1c a9 3b be 5d 23 a8 3e
       -0.2765352 -0.09894119 -0.18326229 0.3283948
000390 56 3d 5d 3d 04 57 98 bf 50 81 89 bd a3 1c 26 bf
       0.054013573 -1.1901555 -0.067141175 -0.64887446
0003a0 08 3b 2e be 5d d8 d8 be bc af e7 be af f5 2d 3e
       -0.17014706 -0.42352572 -0.45251262 0.16988252
0003b0 99 9b e0 3d fc 55 97 3e b4 1d 3b be ac 0b d9 3e
       0.10967178 0.29557788 -0.1827305 0.42391717
0003c0 44 ee 39 be 2c 15 00 bf 39 63 00 bf e9 c6 0a 3f
       -0.18157297 -0.50032306 -0.501514 0.5420976
0003d0 2f 6e 0c 3e 1d 5d c7 be 5a 69 36 be 41 12 98 be
       0.13713907 -0.38938227 -0.17813626 -0.29701427
0003e0 08 ea be 3e b0 2f 3d 3c 1c c6 b0 3e 88 9f 03 3f
       0.37287927 0.011547014 0.34526145 0.514153
0003f0 98 64 ee 3e af 0f 80 3d 27 ba 92 bf 1f 8a 0c bf
       0.46561122 0.062529914 -1.1463059 -0.54898256

conv6.bias f4 [32]
000000 e4 c5 32 40 8a b2 65 3f 37 21 3e bf b6 cf ab bd
       2.7933283 0.89725554 -0.7426943 -0.08389227
000010 11 25 58 bf 05 29 02 40 31 86 28 40 3b 46 d5 bf
       -0.8443156 2.0337536 2.6331904 -1.6662058
000020 16 da 3b 3f 02 cb 02 c0 90 cf 73 bf f9 dc 47 bf
       0.7337965 -2.0436406 -0.9523859 -0.7807155
000030 29 72 96 bf 3c ea b4 be 44 40 14 bf 40 6d 80 3d
       -1.1753589 -0.35334957 -0.5791056 0.06270838
000040 52 cc 81 bf c2 58 b6 bf e3 a9 80 bf b1 ca e3 3e
       -1.0140479 -1.4245837 -1.0051845 0.4449058
000050 d8 b5 82 bf be 06 58 3f bc 9d 5a be e8 2e 11 40
       -1.0211744 0.8438529 -0.21349233 2.268488
000060 87 4e 11 3e 78 b8 3c bf 18 d9 86 bf d8 97 3d bf
       0.14190112 -0.73718977 -1.0535002 -0.7405982
000070 2d 62 59 bf 78 19 ae bf e9 bb 57 bf 12 ee 66 3f
       -0.8491543 -1.3601522 -0.84271103 0.90207016
