pytorch_dqm/DQN_plainCNN.pth (torch, 915491 bytes, 22 tensors)

conv1.weight f4 [32, 1, 5, 5]
00000000: 6369 8abe 887a 5dbe 3a0a 74be 326a a1be
00000010: 44b3 7e3e e50b 0abf 69f7 d33d 028e 4b3e
00000020: 9298 463b 77bb 57be b664 50be fab8 063e
00000030: 77fb 07bc bcd2 b53d 782f e6be eba6 073f
00000040: 6f88 f03e e261 04bf 0320 1f3e 9531 1a3e
00000050: dc76 75bb 57d2 b0be 4b39 18be 0228 10bf
00000060: 28e5 473e 2306 aebe 9e2c 473d 0131 563e
00000070: b95f bd3e c4b8 56be 1a4c 29bf 4fae 8abe
00000080: 24bd e33e afb8 6dbe 9b66 6fbe d1b8 12bf
00000090: a26f 083e 0e4c 9abe 64b1 083f 75ae 30bf
000000a0: b5fe 503d 64ec ad3d ed35 5b3d a7ec aebe
000000b0: d448 16bf 1a10 b9be 7ace 26be f5ca 393e
000000c0: 887c 25be 7382 2cbf 27f4 923d 63fd 0dbf
000000d0: caa0 953e 593e a3be 7e42 79be fa9a b0be
000000e0: 2d87 4f3e fe18 0d3e bc33 083a ca58 6abd
000000f0: 7525 b1bd 2e81 21be 7743 8cbe a9c9 9cbe
00000100: b8b2 d3be 0a70 443e 0df8 c13d dc5d c7bc
00000110: 5b52 29be 1684 423e 5af3 07bf a6be a33e
00000120: 6e49 8b3e b588 fa3e f1a5 6b3d 9e09 d9be
00000130: 4581 a2bd d222 a23d 60f6 0fbe 357b 6f3c
00000140: 57da b93e d0cd 643e c855 d3be a635 47be
00000150: a784 a33e 87cd c1be 4c9f 383e 2d16 0d3d
00000160: 0e83 13bf 32c6 cbbb 5c52 d73d 2113 dd3e
00000170: bb02 d33d 8528 48bf a7b8 adbd 0e56 373e
00000180: 4d40 2cbf 8c84 413e 514e 973d de86 0cbd
00000190: 903e d43d f13e ec3e 86e8 93be 2416 6d3e
000001a0: 7579 38be abad 16be a9e9 433d b32a 153e
000001b0: 728e 363f 5526 e8bd f466 89be 409b e73d
000001c0: 95a8 7f3e c4c1 1ebf 4c60 f2bd da5e 47be
000001d0: f1ed 02bf 0723 793e 9884 63be 5d32 39bc
000001e0: 5d4e 34bf 540a a43c 46c2 84bb b990 d6bc
000001f0: 6704 233e 5301 523c 2929 613e 0c3e ee3e
00000200: f0be bebd 992d da3e f591 8b3d 105c 83be
00000210: 8112 443d bf05 1bbe a166 2b3e fd95 15bf
00000220: d0d0 b2bd fd9b b3bd e1e7 503e 4a5b cbbe
00000230: 6f3e 19be 2fd4 aa3e f84e e23e a94e 29bd
00000240: 6e44 74be 7df0 543e 05ec 96be b6b7 0cbf
00000250: 2020 19be f07d bcbe 4243 043e 8618 a43e
00000260: 894f 12be b8ee 87be 61b0 22bb 5906 bc3e
00000270: d98c e43d e194 793e e756 b43e 4198 343c
00000280: 9801 c1be e32f 7f3e 36ec 18bf 75d6 b3be
00000290: 6b39 3ebb 9961 d03e 49a3 ea3d ca2b 83bd
000002a0: 27df 23bf a453 1bbc 0ab7 d3be 8879 0d3d
000002b0: a625 c4be 2bc4 83bf d02b d7bd 124b 45bf
000002c0: e4bb 5dbe c1ed dfbd 1ed4 97be c9ee aa3c
000002d0: b7d0 a7be bd14 5c3e 149e 4d3e 851a d0bd
000002e0: c9e3 843d 4de2 57bd 694a 1ebe f696 4f3f
000002f0: c95e 123e 122d 8dbe f8e0 ea3c fbfb ee3e
00000300: 195a 17bf 4885 47be 1611 cabd b5e3 a6be
00000310: dfc1 e5be d13c 673e 849d 063e fd81 183f
00000320: 12bb b7bd aeba ad3b 990d dbbc 3c08 07be
00000330: 3d03 fe3d 0276 a9be 9518 4abf fd30 bebd
00000340: 9ea7 92bd 7877 2fbd 605a fcbe 3602 7b3e
00000350: c957 8f3e 7873 d13d 88f3 1c3e 6ba0 57be
00000360: beaa e4be ce9c 1bbf d884 8b3e ca84 003f
00000370: e988 9cbe 122c 39bf 1ae1 a6be b056 10be
00000380: 22ae 40be 02ce 973e 4551 ff3d 7bc8 c6bd
00000390: 9221 763e d0a8 ccbd 71b9 113f 96a8 c53d
000003a0: 631c 6abd 60d9 e8be f360 68be e1c9 47bf
000003b0: df53 56bd 8a01 053e 15c8 823c 545c 1f3e
000003c0: 4b7b a4bd a38e f63e e475 0dbf 5c02 9cbe
000003d0: 5f9a bfbe c431 c23d 8d16 2ebf b654 dfbe
000003e0: ce15 10bf 1554 313e b18f 47be 1d0d dcbd
000003f0: f645 db3d 64e8 3cbe 9ceb 1d3d 24cc ccbd
-0.2703353 -0.21628773 -0.23832026 -0.31526333 0.24873072 -0.539244 0.10349924 0.1987839
0.0030303341 -0.21067606 -0.20350918 0.131565 -0.0082997 0.08878085 -0.4495809 0.5298907
0.4697909 -0.5171186 0.15539555 0.15057977 -0.003745488 -0.34535477 -0.14865606 -0.5631105
0.1952101 -0.33989057 0.048626535 0.20917131 0.36987093 -0.2096892 -0.66131747 -0.27086112
0.4448024 -0.23214982 -0.23378985 -0.5731326 0.13323835 -0.3013615 0.53395677 -0.690162
0.051024158 0.084923536 0.053518225 -0.34164926 -0.58704877 -0.36145097 -0.16289702 0.18143828
-0.16160786 -0.6738655 0.071754746 -0.5546476 0.29224235 -0.31883505 -0.24341771 -0.34493238
0.20266409 0.13779065 0.00051956973 -0.057213582 -0.086497225 -0.15771934 -0.27395222 -0.30622604
-0.4134729 0.19183365 0.0947114 -0.024336748 -0.16535322 0.189957 -0.531057 0.3198139
0.2720446 0.48932424 0.0575313 -0.4239015 -0.079348125 0.07916798 -0.14058828 0.014616777
0.36299393 0.22344136 -0.41276383 -0.19454059 0.31937143 -0.37852117 0.18029517 0.034444977
-0.5762185 -0.006218695 0.10513756 0.43178657 0.10303255 -0.7818683 -0.08482485 0.17903921
-0.67285615 0.18898219 0.073879845 -0.034308307 0.10363495 0.4614177 -0.2888834 0.23152977
-0.18015082 -0.14714687 0.047830258 0.1456707 0.71311104 -0.11335436 -0.2683636 0.113089085
0.24966653 -0.6201441 -0.118347734 -0.19469777 -0.5114432 0.24329768 -0.22218549 -0.011303511
-0.7043207 0.020024456 -0.0040514795 -0.026192056 0.15919648 0.0128176985 0.21988358 0.46531713
-0.09313762 0.42612913 0.068149485 -0.25656176 0.04786921 -0.1513891 0.16738369 -0.5843199
-0.08731234 -0.08769987 0.20400955 -0.39718086 -0.14965223 0.33365008 0.44200873 -0.04133478
-0.23854229 0.20794864 -0.29476944 -0.5496782 -0.14953661 -0.36814833 0.12916282 0.3204996
-0.14288153 -0.26549315 -0.0024824368 0.36723593 0.11159677 0.24373199 0.3522255 0.011022628
-0.37696528 0.24920611 -0.5973543 -0.35124555 -0.0029025923 0.4069946 0.114569254 -0.064048365
-0.6401238 -0.009480391 -0.41350585 0.03453973 -0.38309973 -1.0294241 -0.105064034 -0.77067673
-0.21653706 -0.1093402 -0.2965402 0.020865815 -0.32776424 0.21492286 0.20079833 -0.10161308
0.06488759 -0.05270605 -0.15458073 0.81089723 0.1429397 -0.27573448 0.028671727 0.4667662
-0.59121853 -0.19484437 -0.0986654 -0.32595602 -0.44874474 0.22581793 0.13146025 0.59573346
-0.08971228 0.005301795 -0.026739882 -0.13186735 0.124029614 -0.33097845 -0.7894376 -0.092866875
-0.07160877 -0.042838544 -0.492877 0.24512562 0.27996662 0.10227102 0.15327275 -0.21057288
-0.44661516 -0.6078614 0.2724979 0.5020262 -0.30573204 -0.7233287 -0.32593614 -0.14095569
-0.18816426 0.2964936 0.12466673 -0.09706207 0.24036244 -0.09993136 0.56923586 0.09651296
-0.057155978 -0.45478344 -0.22693233 -0.7804242 -0.05232608 0.12988868 0.015964547 0.15562564
-0.08031329 0.48155698 -0.5525801 -0.3047055 -0.37422463 0.09482148 -0.6800316 -0.43619317
-0.5628327 0.17317231 -0.19488408 -0.10744689 0.10706703 -0.18448025 0.038554773 -0.09999874

conv1.bias f4 [32]
00000000: cea0 8ebe c2fc 6f3d bfd5 28bf 1190 d1be
00000010: a8d9 f3be ffc5 9dbd 1106 eb3d 737c 14bf
00000020: b0c6 41be f8ad fd3d fbab f5be eda8 e1be
00000030: 994c c2be eb2f 6ebe edf7 18be 543c a63c
00000040: b50e 12be f443 ecbe b1b0 443e d23b 5fbe
00000050: c2b2 3dbf 8be9 dcbe 9c5b 61be f0e7 3dbe
00000060: 2826 07bf 4620 42bf f351 15bf 0439 0fbf
00000070: e74d 12bf a6d1 cfbe abd5 d3be d836 803e
-0.2785706 0.058590658 -0.6595115 -0.40930226 -0.47626996 -0.077037804 0.114757665 -0.58002394
-0.1892345 0.123866975 -0.47982773 -0.44074193 -0.37949064 -0.23260467 -0.14938326 0.020292439
-0.14263423 -0.46145594 0.19208027 -0.21800163 -0.7410089 -0.4314693 -0.22007602 -0.18545508
-0.52792597 -0.75830495 -0.5832817 -0.55946374 -0.5715012 -0.40589637 -0.41373953 0.25041842

conv2.weight f4 [32, 32, 5, 5]
00000000: 0ebb cc3e cbf3 b93e b829 5e3d bb31 94bd
00000010: 0965 62be f1bd babe cb1f 803d 7435 d2be
00000020: 92a8 7dbd 8e6c 863d f62a 42bd 1d4b 9ebe
00000030: fb21 cfbd 6487 17bf 1402 00be 509a acbc
00000040: 8943 c33e 95f4 e6bd 86b5 7a3e a9c8 1b3e
00000050: ed70 253e 1908 6ebe cdd1 a5be da3f a93e
00000060: 9a4d 3b3e 1367 7bbe b595 dcbd 3f49 963e
00000070: 298d 173f c31e 84be 49c4 c13d 75e5 e13e
00000080: b585 903e d95b ad3d 92b6 0bbe 5419 abbe
00000090: a885 ac3e 579a aa3d 7c8b 72be fa43 81bf
000000a0: 8920 4ebf e37a 1a3f f01c ac3e 5297 783e
000000b0: 5afc a2be 311f 3fbe 19ac b83b 0412 2d3e
000000c0: b8df 2fbe 33a6 3bbf fdd8 a83e eaf2 9c3e
000000d0: e07c 57be 6a7e b93e c35e 17bf 899b 54bd
000000e0: 1931 03bf 30d7 0c3e b3d6 82be 5b85 2abe
000000f0: 4f91 153f d7c4 b2bd 7acf 1f3f 280b 38be
00000100: 9dd6 4ebe 9a10 a63d 04fa 123f 375e a0be
00000110: 017a ce3d 1cc2 adbe 3c12 ba3e 1469 eebd
00000120: 296c b4be 924b 1cbf 9b71 45be 51f7 69bc
00000130: 533c 0d3e 2621 a0be 6334 173d 2120 4bbe
00000140: 2867 59be ba23 febd b234 22be bbc1 1c3f
00000150: 0bff 23bf e637 00bf 556a f5bd bd0e e43d
00000160: 2103 b1be 6245 9dbe 7b23 33be 5b93 223e
00000170: d415 f03e 6f5f bfbe 4a2f 0f3f abe0 97bd
00000180: 4374 12bf 373b 7f3e 767b b13d 9ded 5bbd
00000190: a82f 483c 4823 17bd 878f 3fbf 189c 1abd
000001a0: 4fbf d53e 8c44 d13e 19f0 1cbe 574d 1fbd
000001b0: 8e62 77bf 3b6e c5be 1164 2b3e c4b1 093e
000001c0: 86a5 8d3b 9beb 30be f162 d4be 98a8 d9bd
000001d0: 6a13 9cbe cd72 14bf 431a fb3b 96a5 14bf
000001e0: 1e47 833e aaa2 8bbf bef6 fb3e 05d8 5ebf
000001f0: 974a 45be 35f8 683b 725a 9b3e a141 d4bd
00000200: 6d6d 89be 5bdb c93d 761b a6bd 1e2e 823e
00000210: d892 023e 1e6a d43e 92fc 76be 351f 8abe
00000220: 5cad 99be 8643 c53d 7b52 08bf 7d42 b23b
00000230: 4898 083e d409 e33d 7310 0e3e 8217 2bbe
00000240: 71a3 2d3e 16e7 40bf 86e1 8ebd 9e9c 0bbc
00000250: 695b 193e 9bcd 73bf 47c4 8f3d 274e 09be
00000260: 884f 953e caac 84be 8682 72be 4b26 75bc
00000270: afbf 7bbe 71c5 623d 1dcd f13d 0436 35bd
00000280: ef72 d43d 5b1c fc3e 82fa 28be 38cc 54bf
00000290: 1dae 45be 6745 51be 4d51 fabe 479a 6ebe
000002a0: 36cd 1f3c 5d53 e3bd f757 4b3e c2d8 193d
000002b0: c662 9a3e 9a08 01bf b63c b93e d4c0 003f
000002c0: caaf cd3e f354 d5be ca32 883e 35c9 4abe
000002d0: cd97 36bf 89cc 58be beeb 103e da03 12bf
000002e0: e860 6a3d f6fb 87bd 2f4e e83c 5be4 40be
000002f0: 4810 dfbe 8645 71be 130e 8e3e 43c7 84be
00000300: 23cc 81bd aa30 0abf ead1 f9be b38c 92bd
00000310: f154 e0bd ca0d 8bbb f3a1 cd3e 096e e53d
00000320: 2fb1 5f3e 9f5f ffbe 078c 763e dfa0 933e
00000330: 0a3a b1be e2a7 4bbe 7593 00bf 8bb2 a1be
00000340: 6ce8 cc3e 96b8 2cbe d0be 19bd 276b 263e
00000350: 7dd4 94bb 2e95 d43e 2702 173e 00b1 f1be
00000360: de19 613e 3fa1 edbe 03bb cc3e 0649 f23e
00000370: 5647 2b3e 6d35 a3be 3ab3 75be 4de7 aebe
00000380: b6fc 51be cb82 45be a343 d03e 57b3 17be
00000390: f989 01be 6683 833d 863a adbe a69c debb
000003a0: 0195 093d 699e 2ebe 4489 03bf a09d ab3e
000003b0: 1da8 803d 2f10 afbd 1c3f 34be ab4f 0bbe
000003c0: 93ab d9be bc12 2abf 3767 b4be c281 5cbe
000003d0: b69c 98be eb22 663e 8274 52bf d1b4 ccbc
000003e0: 56ea 1a3e b30d 68bf aa77 d53e 9ed0 acbe
000003f0: 7314 863e 5326 5abc 8b69 56bf b0a9 293e
0.3998646 0.36318812 0.054239005 -0.07236048 -0.22108854 -0.3647304 0.06256064 -0.41056406
-0.06192834 0.06563674 -0.047404252 -0.30916682 -0.10113903 -0.59190965 -0.12500793 -0.021069676
0.38137463 -0.11277119 0.24483308 0.15213265 0.16156359 -0.23245277 -0.32386628 0.33056527
0.18291321 -0.24551038 -0.10770742 0.29352757 0.5919977 -0.2580472 0.094612665 0.44120374
0.2822701 0.08464784 -0.13643864 -0.3341776 0.33695722 0.08330219 -0.23686022 -1.009887
-0.80518395 0.6034376 0.33615828 0.24276474 -0.31833154 -0.18664242 0.00563575 0.16901404
-0.17175186 -0.73300475 0.3297805 0.3065408 -0.2104373 0.3622926 -0.5912897 -0.051906142
-0.5124679 0.13753963 -0.25554428 -0.16652434 0.5842485 -0.087289505 0.6242596 -0.17973006
-0.20199056 0.08108635 0.57412744 -0.3132188 0.10081864 -0.33937156 0.36342037 -0.11641136
-0.3523877 -0.6105281 -0.19281618 -0.014280156 0.13792543 -0.3127529 0.036915194 -0.19836475
-0.21230757 -0.12409158 -0.15840414 0.6123311 -0.6406104 -0.50085294 -0.11983172 0.111356236
-0.345727 -0.30716997 -0.17494003 0.15876524 0.46891654 -0.37377498 0.5593153 -0.07415899
-0.5720865 0.24924932 0.086661264 -0.053693403 0.012218393 -0.03689888 -0.7482838 -0.03774652
0.4174752 0.4087261 -0.15325965 -0.038892116 -0.9663476 -0.38560662 0.16737391 0.13446718
0.0043227104 -0.17277376 -0.41481736 -0.1062786 -0.30483562 -0.5798767 0.0076630428 -0.58065164
0.25640196 -1.0909016 0.49211687 -0.8704837 -0.19266735 0.0035548334 0.30342442 -0.1036408
-0.26841298 0.09856292 -0.081107065 0.2542581 0.12751329 0.4148721 -0.24119785 -0.26976934
-0.30015075 0.0963202 -0.53250855 0.005440055 0.1333934 0.11085859 0.13873462 -0.16708186
0.16956879 -0.7535261 -0.06976609 -0.008521227 0.14976276 -0.95235604 0.07019859 -0.13408719
0.2916224 -0.25913078 -0.23682603 -0.014962743 -0.2458484 0.055364076 0.118067004 -0.044240966
0.10373484 0.49240384 -0.16501811 -0.83124113 -0.193047 -0.20436631 -0.48890153 -0.2330104
0.009753516 -0.11099885 0.19857775 0.037560232 0.30153483 -0.5040375 0.3617913 0.5029423
0.4017318 -0.41666374 0.2660125 -0.19803317 -0.7132538 -0.21171774 0.14152429 -0.57037127
0.057221323 -0.066398546 0.028357593 -0.1883711 -0.4356711 -0.23561677 0.27745113 -0.25933275
-0.06337764 -0.53980505 -0.48792964 -0.071557425 -0.10953701 -0.004243587 0.4016262 0.11202628
0.21844934 -0.4987764 0.24076854 0.28833672 -0.34614593 -0.19888261 -0.50225 -0.3158153
0.40021074 -0.16867289 -0.03753549 0.16251813 -0.004541932 0.41520065 0.14746915 -0.47205353
0.21982524 -0.46412084 0.3998643 0.47321337 0.16726431 -0.31876698 -0.23994151 -0.34160843
-0.20506558 -0.19288175 0.40676603 -0.14814506 -0.12650289 0.06421547 -0.33833712 -0.0067935763
0.033589367 -0.17052616 -0.51381326 0.33518696 0.06282065 -0.08548009 -0.176022 -0.1360461
-0.42513713 -0.66434836 -0.35234997 -0.21533874 -0.2980706 0.22474258 -0.82209027 -0.024988564
0.15128455 -0.90645903 0.4169286 -0.33752912 0.26187477 -0.013314801 -0.83754796 0.16568637

conv2.bias f4 [32]
00000000: 3080 d1bc 2db6 ccbd 960f b1be bde8 a63d
00000010: 51c8 423c 6cb4 89bc d89d 8ebe 9373 e73a
00000020: d3af 66be 9a0d b0be d777 0abc 55b0 cfbd
00000030: b6d2 37be c571 35bd bac5 23be 9e5c bcbd
00000040: c8a1 50bd abd1 a7be 361e a7be b747 cbbd
00000050: c7c0 3a3d 773a c5bd 1c61 72be 068c 0ebe
00000060: 8a09 53bd 0ae1 d0bd 6e6d 32be 413a 7bbe
00000070: b54a dbbd 12da 82be 2691 d33c 1634 57be
-0.02557382 -0.09995685 -0.34582204 0.0814986 0.011888579 -0.016809665 -0.278548 0.0017658345
-0.22528009 -0.34385377 -0.008451424 -0.101410545 -0.17951474 -0.044297952 -0.15993395 -0.09197353
-0.050935537 -0.3277715 -0.32640237 -0.09925788 0.045594003 -0.09630292 -0.23669857 -0.13920602
-0.05152277 -0.10199173 -0.17424557 -0.24533941 -0.107076086 -0.25557 0.025826048 -0.21015963

conv3.weight f4 [32, 32, 5, 5]
00000000: f773 183c f89a 0c3f e4a5 9d3b 60be 663e
00000010: 8d31 823e 8749 613e 01fe e8be 78f4 d73e
00000020: 224c bb3e 53a1 b8be b624 cc3e c368 c8bd
00000030: b8a7 85ba 914e 38be c9bb a8be 89af b0bd
00000040: c2a7 563d fb08 dfbe 966d d1be d654 083f
00000050: 6353 f4bd 0965 773e aebe adbe 851c 0e3e
00000060: 8445 fbbe 5a2c d93e 74eb 8b3d 9ec5 b33e
00000070: 6f21 553e 2b22 91be bfbc 853e 29b3 903e
00000080: 0dc3 003f 767e fcbe e7a5 48be e678 88be
00000090: 9da3 61bd 7147 c4be c3b8 ffbd 905e a2bd
000000a0: 95bb de3e 9b87 a13e 7959 743d dede 51be
000000b0: 654f 24bf c929 89be 31f1 683e a9ad 743e
000000c0: 354a b3be 48a3 85be 85e0 be3e fe60 d3bc
000000d0: 01ec 12bc 02cb f23e d5da 123e 0e6c 3abf
000000e0: 72c7 28be d540 f83d e8ac 073f 252d c13d
000000f0: a9f0 8bbd 3fd3 343e 580e 18bd 9184 cabd
00000100: 4473 54be 6f23 823e d762 68be 29d6 873d
00000110: 298e 853e 04f8 263e 897d 07bf 7414 003f
00000120: f8da 58be e96d a8be f4bd 6dbe 06b1 4bbe
00000130: 67c0 8c3c 8069 00be 9d6a 0d3e 08f6 38be
00000140: 28c5 063e f677 963c a3d6 d13e 4974 043e
00000150: c6fa dfbd f242 febe f798 e93e 5cd0 a9be
00000160: bdd3 9cbc 1dff 9ebd 178d abbe d09d fb3e
00000170: 08ed 183e 1ba1 a43d 2a40 853e 521b 50be
00000180: 87ee ac3d 6632 42be 0fde 85be 0d40 31be
00000190: 8b94 16bd f415 743e 55ec f5be c997 f7bd
000001a0: 768e 2b3f aa7c 2b3e 4508 0a3f 9754 b4be
000001b0: 3552 5fbe 01b1 a13d 0033 82bd e992 fbbe
000001c0: 0f38 26be 985c 3c3c 50b3 a4be 7280 67be
000001d0: 7a03 64bd 3bf9 e53e 1eae 643e 98ee eb3e
000001e0: def7 b9bd 91d2 c93e b221 6abd 08f7 053e
000001f0: 5a3f cebe 06bc cebe e8d9 80be 8f3a 95be
00000200: 961e 0a3e efed 8c3e dcb8 ae3d 47ad 85be
00000210: c8b7 edbd 87b0 b1bd 3093 e63d 89b4 9a3e
00000220: 5086 0fbf 18e3 86bd 3a38 82be 2294 4f3e
00000230: f5dc 54be 24f3 9bbc 6d4a 163f 1b72 6dbd
00000240: be21 863e c592 94bc 1fce c03e c235 973e
00000250: ca45 d7be d453 333f 80d4 843e 77ee 08bd
00000260: af2f d0be a4b4 42bf e160 3e3e dfcd 853e
00000270: 6ba3 8abe 9b09 a2bb 3248 87bf 4589 51be
00000280: 29f8 f93c af15 10be bfdf 563e 2d8d 9abe
00000290: 5ffa 063f 841b 8abe ac62 923c 618e 95bd
000002a0: 948b 1f3e dded 82bd 6dc2 1c3f 16ef 19be
000002b0: 3a9e b9be fae9 10bf 524f 24be dd73 e0bd
000002c0: a329 88bd 8f47 6a3e e35d ccbe 68f0 6d3d
000002d0: 48ad 4abe e255 283d 5e59 92be eea9 df3e
000002e0: f331 033f 1942 20be ddc4 df3e 486f a23d
000002f0: 47c3 00be cab2 093b f0ee 083e d50f b9bd
00000300: b1fd 79be 0cac 61bd fcf9 cbbb a3a2 26bf
00000310: 0bca a6be e2c0 e63b 8ff3 4e3e c023 b5be
00000320: cbe6 533e 606e 9c3e 0d85 8fbe 1c11 9bbd
00000330: c68a 043e 2e4a 173e 2f14 b03d 2784 1a3e
00000340: c1b4 183f edc0 4abe 8c11 2fbe ffe6 5e3d
00000350: 78d0 f03a d692 c53e b96e 78bd f08e 68be
00000360: e088 5c3e 25c0 ddbe 93ce a03e 4dd5 893e
00000370: 890a 08bf fb7e a4be df24 05bf d999 8fbd
00000380: 546b 87be 1740 b8be 9218 56be d2fb 7abd
00000390: fc88 3fbf bdc6 aebe b8ef 9abe cba4 8a3e
000003a0: cfbb 993e 6bf8 8d3d be5f b2bd d6cb 82bd
000003b0: ea8e 693e ce07 d2be cc90 a73e 819f e33b
000003c0: 0e4f 103e 1afe 1e3e 3e6a 6e3d ec23 5ebe
000003d0: 0730 dfbe 28d0 6b3e f9c6 aabe 5620 6c3d
000003e0: e425 ac3e e0a0 25bf 3efc cdbe 6df6 7a3e
000003f0: 0faf d6bd 3391 98be 2114 89be 806b 67be
0.009304992 0.54923964 0.0048110355 0.2253356 0.2542843 0.22000705 -0.4550629 0.42178702
0.36581522 -0.3606058 0.39871758 -0.09785607 -0.0010197079 -0.1799872 -0.3295577 -0.08627231
0.05240608 -0.4356154 -0.4090392 0.5325445 -0.11929967 0.24159636 -0.3393454 0.13878067
-0.49076474 0.4241665 0.068320185 0.35111707 0.20813535 -0.2834638 0.26120564 0.28261688
0.50297624 -0.49315232 -0.19594537 -0.26654738 -0.055087674 -0.38335755 -0.124864124 -0.079281926
0.4350249 0.3154877 0.05965564 -0.20495173 -0.64183646 -0.26789692 0.22748257 0.23894371
-0.35017553 -0.26101136 0.3728067 -0.025803085 -0.0089674005 0.47420508 0.1434129 -0.7282113
-0.16482332 0.12121741 0.5299821 0.09432439 -0.06833012 0.17658709 -0.037123054 -0.09888566
-0.20747095 0.2541766 -0.22693954 0.06632645 0.26085022 0.16305548 -0.52925926 0.5003121
-0.2117728 -0.32896355 -0.23216993 -0.19891748 0.017181588 -0.12540245 0.13810201 -0.18062603
0.13161147 0.018367749 0.40984067 0.12934984 -0.10936503 -0.4966045 0.45624515 -0.33166778
-0.019143933 -0.07763503 -0.3350608 0.4914384 0.1493417 0.08038541 0.26025516 -0.20322922
0.08443933 -0.18964538 -0.2614598 -0.1730959 -0.036762755 0.238365 -0.4803187 -0.120894976
0.67014253 0.16746774 0.5391887 -0.35220787 -0.21808703 0.07895089 -0.06357384 -0.4913552
-0.16232322 0.011496685 -0.32168055 -0.22607592 -0.055667378 0.4491671 0.22332045 0.4608047
-0.0908048 0.39418462 -0.05716104 0.13082516 -0.40282708 -0.40377825 -0.2516625 -0.2914624
0.1348823 0.2752528 0.08531353 -0.26108763 -0.11607319 -0.08676248 0.112585425 0.30215862
-0.5606432 -0.065862834 -0.25433522 0.20271352 -0.20787413 -0.019036837 0.58707315 -0.057970148
0.26197618 -0.018136391 0.37657258 0.295332 -0.42045432 0.70049787 0.25943375 -0.033430543
-0.4066138 -0.76056886 0.18591644 0.2613363 -0.27077803 -0.0049449927 -1.0568907 -0.2046252
0.03051384 -0.14070772 0.2098379 -0.30185834 0.52725786 -0.26974118 0.017869316 -0.07302547
0.15580589 -0.06393025 0.6123417 -0.1503261 -0.3625353 -0.5660702 -0.16045883 -0.10959599
-0.066485666 0.2287886 -0.3991538 0.058090597 -0.19792664 0.04109753 -0.28583807 0.43684334
0.5124809 -0.15650214 0.43704882 0.079313815 -0.12574492 0.0021011108 0.13372397 -0.09036223
-0.24413182 -0.055095717 -0.006224869 -0.65091914 -0.32576022 0.0070420364 0.20210098 -0.35378838
0.2069351 0.3055296 -0.28031197 -0.07571623 0.12943563 0.14774391 0.085976 0.15089475
0.5965081 -0.19800158 -0.17096537 0.054419514 0.0018372675 0.3858859 -0.06065247 -0.22710776
0.21536589 -0.43310657 0.31407604 0.26920548 -0.53141075 -0.32128128 -0.52009386 -0.07011766
-0.26449072 -0.35986397 -0.2090781 -0.06127531 -0.74818397 -0.34136 -0.30261016 0.27078852
0.300261 0.069321476 -0.087096676 -0.06386535 0.22808424 -0.4102158 0.3272766 0.0069465046
0.14092657 0.1552662 0.05820679 -0.2169339 -0.4359133 0.23028624 -0.3335493 0.057648025
0.33622658 -0.646986 -0.40231508 0.24508066 -0.104826085 -0.29798278 -0.2677317 -0.22599602

conv3.bias f4 [32]
00000000: 7a83 31bf 5322 94be ca00 ccbe e686 1bbe
00000010: b72f 8fbd bf5f 99be dc72 8bbe a3e5 f9be
00000020: 4190 fabe 3b60 49be ff3e 5dbe eb54 0ebe
00000030: 5aa5 84be f5a6 04be cc24 95be 0926 febe
00000040: d16e 6ebe 76ff c4be 3e26 22be 70d0 28be
00000050: 452c b9be 7602 0dbf c96d 82be 0bdb 76be
00000060: b0ad 3fbe 5a61 82be 3964 91be daf9 03bf
00000070: 3761 80be d34c c3be 660e aabe 1ce4 83be
-0.6934124 -0.28932437 -0.39844352 -0.15188178 -0.06991523 -0.2995586 -0.27236068 -0.4880801
-0.48938182 -0.19665615 -0.21606062 -0.13899581 -0.25907403 -0.12954314 -0.29129636 -0.49638394
-0.2328446 -0.3847615 -0.158349 -0.16485763 -0.36166587 -0.5508188 -0.25474384 -0.24106996
-0.187186 -0.25464898 -0.28396776 -0.5155312 -0.2507417 -0.3814455 -0.3321411 -0.2575997

conv4.weight f4 [32, 32, 5, 5]
00000000: 9c19 0fbf 32c4 2abf a848 a23e 1ffd 4f3e
00000010: 5d6f 37bf efe9 6dbe d871 e0bd e335 2d3e
00000020: 32d2 fbbe 65a7 84be 13c3 1e3e b6b1 57be
00000030: 58bd a03e 4479 963d bd8a 9f3d a939 1d3e
00000040: 86cd 3dbd 4ba2 47be 2144 08bf 1806 1b3e
00000050: 215f a9be bb4d aabb e4cf 82be 8b92 2dbf
00000060: 1f42 cc3e b60b bebe 9ca2 fdbe 98e3 a6be
00000070: 6482 2cbe 8aac 26bf 4b01 9dbd a85f db3e
00000080: 77a4 7abc df0a 893d 778f b83d f2dc d9bd
00000090: 7530 06be c114 60bd c7e2 cebd 834e 823b
000000a0: f2fc f53e e56f 3dbf cedd a5be 7fdb 9bbe
000000b0: a073 5bbe 33ea b3bd 0fc9 54be c29b 403e
000000c0: ae7c ac3e ed0a 8e3c a7bc 3dbe fb4f f8bd
000000d0: a6b4 903d bc0b a63c fb69 30ba 9881 8d3e
000000e0: 3cd7 833e 8c3d b83e 2f48 e4be e4cf 063e
000000f0: 15bc 893e 7d91 1b3e b567 56be 2c40 cc3e
00000100: 7d39 463d 2084 aa3d e3fb c43e 202f 4d3e
00000110: 3a9e 13bf 286c c4be 5687 853c 9df6 8abc
00000120: 608e f5bd d9ba bc3e 36e8 923d f6ee 01bf
00000130: 8459 c93d 22bb 5ebf d45a 1b3f 84c3 aabc
00000140: cd8b e3bc a173 0ebf d27d 8cbe 2882 93be
00000150: 2ec9 0ebe 9b7a 03bf 2553 35bd a551 4ebe
00000160: 896e 8fbe 60fa 733e 7ea4 fbbc 281d cc3e
00000170: edb1 b4be 5b71 eabe 02c2 783e fcf7 8dbe
00000180: bd12 9ebe 0575 edbe 3fcb d4bd 75db d0be
00000190: ef45 44bf 0499 553e 34ae da3e fc47 de3d
000001a0: 91f0 5c3d ac3b 0e3d 27f5 c3bd 1d6b c23e
000001b0: 22e1 a8be 1a38 3b3e 4f30 89be 6d6b 0f3c
000001c0: fe7d 003e bcd4 babe 0541 1d3e 5d1b 96be
000001d0: 16ee 073e 48c3 443f f398 8cbe 3194 15be
000001e0: 228e 873e f134 ddbe aa0d 813e 9db4 b6be
000001f0: 6529 bcbe 42a4 43bf d859 f73d 56f2 a3bd
00000200: 9a60 663e 7e2e 7fbe 017c 353d 9f0e 16bc
00000210: be80 283c 8aa7 cbbd 47e2 07bf 1d7b 71be
00000220: 2823 2fbe 67c7 8c3d e3e3 823e c78c 91be
00000230: 1295 b6bc 2324 1abd 5af2 933c 10f9 8f3e
00000240: b1de 003f da8e a9be 9da7 6c3e e736 4a3e
00000250: 52df 93be c13b b33e ddd5 02bf 0b6b cdbd
00000260: d18b 7cbe bd62 fc3c 3259 f6bd 9168 35be
00000270: 8c0b debd dab0 aebe f093 f5be e4b4 7e3e
00000280: d626 c93b 4d1a 26be 90dc 14bf 4d44 3bbe
00000290: 8037 c63e 1466 793e 40ad fc3e b76a 63be
000002a0: fb24 b3be 8341 bc3e 5628 843d 5429 a43d
000002b0: 9c3f 2cbf 5621 0abf 6bc2 903e 25b8 c1be
000002c0: feae 0abf 7273 083d 304d 0e3e 1e5f 55bf
000002d0: 6483 14be 84e7 20be 6ce9 6abf bf59 10bf
000002e0: 9bb7 6bbe 00ca 0bbf 19e3 2dbd cfa2 bc3e
000002f0: 7d4e 7a3e fd26 d93e 4ddc 52bd d921 94bd
00000300: b01f bdbe 0912 65be 0d51 a43d 17d6 d33e
00000310: 99a5 cdbe c674 d13e e7dc d93e ac7b 563d
00000320: 6ba1 c93d 994a 30be 29fd 0dbf 3e08 6b3e
00000330: 5eed ab3e ff72 b13e 291a 40bc 92a2 8b3e
00000340: 5264 8d3e 1718 f13e 9c2e 833e d66b d03d
00000350: a1cd 98bc ef53 6a3c 84d3 343f c63b 16be
00000360: 50a7 44be 79d1 01bf 0f21 0e3e df41 3bbe
00000370: cb33 5b3e 3725 90be eb26 973d cf9d 69bc
00000380: 2e45 d43c 6793 7c3d ec92 aabe f373 bcbd
00000390: 7ea1 02be a96e 0ebd 0674 a13e a84f 0f3d
000003a0: d03a 5fbd fb6a f53e bfa2 a3be 80af 2a3e
000003b0: e1b0 71be f263 7fbe a6ab 3dbe f3ac 63be
000003c0: 6bac 01be 382a 423e b2b4 f2be 9fca 09be
000003d0: 2739 cb3e d99c c03d 458d dd3e d851 193d
000003e0: daa8 62be a43f a53d 268b 7ebe 02a6 ed3e
000003f0: 5ddf 923e 14d7 3a3c 384c 083f 37f8 1b3c
-0.5589845 -0.6670562 0.31696057 0.20311402 -0.716543 -0.2323377 -0.10959214 0.16915087
-0.49183804 -0.25908962 0.15504102 -0.21063885 0.31394458 0.07347348 0.07790134 0.15354027
-0.04633858 -0.19495504 -0.53228956 0.15139043 -0.3308039 -0.0051972545 -0.25549233 -0.6780173
0.39894196 -0.3711831 -0.49538124 -0.32595515 -0.16846615 -0.65107024 -0.07666262 0.42846417
-0.015298001 0.066915266 0.09011739 -0.10637845 -0.13104422 -0.054707292 -0.10101848 0.0039766445
0.48044544 -0.7399886 -0.32395786 -0.304409 -0.21430826 -0.08784904 -0.20779823 0.18809417
0.33688873 0.017339194 -0.18528996 -0.1212463 0.07065706 0.020269267 -0.00067296595 0.27637935
0.25750148 0.35984457 -0.44586322 0.13165241 0.26901308 0.15192218 -0.20937999 0.3989271
0.04839467 0.08325982 0.38473424 0.20037508 -0.5766331 -0.38363767 0.016299885 -0.016963298
-0.119900465 0.36861303 0.07173197 -0.5075525 0.09831527 -0.8700429 0.6068547 -0.020845182
-0.027776623 -0.55645186 -0.27439743 -0.2881024 -0.13943931 -0.51358956 -0.044268746 -0.20148332
-0.2801402 0.23825979 -0.030718084 0.39865994 -0.35291997 -0.45789608 0.24292758 -0.2772826
-0.3087367 -0.4637834 -0.103903286 -0.40792432 -0.7666921 0.20859152 0.4271103 0.10853574
0.05394036 0.034724876 -0.095682435 0.37972346 -0.32984263 0.1828312 -0.2679467 0.00875364
0.12548062 -0.36490428 0.15356834 -0.29317752 0.13274416 0.76860476 -0.2746044 -0.14607312
0.26475626 -0.43204454 0.25205737 -0.35684672 -0.36750332 -0.7642251 0.12077683 -0.08005206
0.22497788 -0.24920079 0.044307712 -0.009158759 0.010284601 -0.09944065 -0.53079647 -0.2358212
-0.17103255 0.068739705 0.2556449 -0.28427717 -0.02228788 -0.03763212 0.018059898 0.28119707
0.503398 -0.331168 0.23110814 0.19747506 -0.28881317 0.35006526 -0.5110758 -0.100301825
-0.2466271 0.0308088 -0.120287314 -0.1771567 -0.10842046 -0.34119302 -0.4796443 0.24873692
0.006138663 -0.1622097 -0.5814905 -0.18287773 0.38714218 0.24355346 0.4935093 -0.22208677
-0.3498915 0.3676873 0.06453006 0.08015695 -0.6728456 -0.53957117 0.2827333 -0.37835804
-0.54173267 0.033313222 0.13896632 -0.8334826 -0.14503247 -0.15713316 -0.91762424 -0.5638694
-0.23019259 -0.546051 -0.042452905 0.36842963 0.24444003 0.42412558 -0.051479626 -0.072330184
-0.36938238 -0.22370161 0.08023272 0.41374275 -0.40165403 0.40909404 0.42551348 0.052364036
0.09845241 -0.17215957 -0.55464417 0.22952363 0.33579534 0.34658048 -0.011724987 0.2727247
0.276156 0.47088692 0.25621498 0.10176818 -0.018652739 0.014302238 0.7063525 -0.1467124
-0.1920445 -0.50710255 0.13879798 -0.18286847 0.21406476 -0.28153393 0.0738047 -0.014258816
0.025911894 0.06166401 -0.33315217 -0.09201803 -0.12756917 -0.034773502 0.3153383 0.034988075
-0.054499447 0.47933182 -0.31960103 0.1666851 -0.2360263 -0.2494047 -0.1852251 -0.22233944
-0.12663428 0.18961418 -0.47403485 -0.134562 0.3969204 0.09404916 0.43271843 0.037431568
-0.22134724 0.08068779 -0.24857768 0.46415716 0.28686038 0.011403818 0.532413 0.009519628

conv4.bias f4 [32]
00000000: 0118 38be ba4a 6c3e 7ffb 46bc 25eb dabe
00000010: 46c6 c5bd a6b8 95bd d248 a3be 2d2c a93d
00000020: 7ab5 01be 65b0 db3b de3b cbbe e8bb b8be
00000030: bff5 c63e a561 26be dfa7 78be a727 08be
00000040: f743 28bf 0fe8 4abe 73f0 7cbe 3789 abbd
00000050: ac4b 01be ece0 4bbf dac0 40bd 5c08 61bd
00000060: e053 f4bd 7ae4 8a3c 7df8 d6be 29fe 62be
00000070: 78e0 7e3e 65c3 3cbf d4e3 a6be 65c5 a5bd
-0.17977907 0.23075381 -0.012144922 -0.42757526 -0.09656958 -0.073106095 -0.31891495 0.08260379
-0.12666884 0.0067043775 -0.39694113 -0.3608086 0.38859364 -0.16248186 -0.24282788 -0.13296376
-0.65728706 -0.19815086 -0.24701099 -0.08375781 -0.12626523 -0.7964008 -0.047058918 -0.054939613
-0.119300604 0.01695465 -0.41986457 -0.22167267 0.24890316 -0.7373565 -0.32595694 -0.08094291

conv5.weight f4 [32, 32, 5, 5]
00000000: 4737 1fbf c07f 8cbe 0900 663e c160 1ebf
00000010: 653e 0bbe 67d7 99be 23fb 26be 3569 473e
00000020: 60d2 22be d749 29be 7658 84be 3259 0d3d
00000030: 0ad3 833e 447c 52bd d3fd 353e 4c86 08bb
00000040: 43bf 03bf 30e4 8b3d 19d7 203f 8623 0bbf
00000050: 1241 3cbc 4b05 833e 943d 3a3e 3495 663d
00000060: 4533 b5be a204 d23e 4762 8abe 14e2 febd
00000070: 8f11 13bf c612 4dbd f408 033f 13a3 9b3e
00000080: 3413 c13d f2ca 85be ebdc 21bf 7e0a 10bd
00000090: 05fc c63e 7592 323d 29cf c23d 785c f03e
000000a0: e827 483e 86c2 69be 87c1 3b3e b0af 30be
000000b0: a759 50bf f261 6cbf f586 24be deb1 253e
000000c0: 0332 9b3e adb2 babe 5e69 863e 1457 61be
000000d0: 8ab7 6dbe 2c8d 80bd 0384 393e a5fb b3be
000000e0: 10fb a33e fab8 1cbf a766 1a3e a1af afbc
000000f0: 9480 993e e132 4fbe 846b 16bd c664 913d
00000100: 3308 ca3e 0d71 a13d 2632 99bc faef 133e
00000110: 838f 873e 1d60 943e 6648 c63e db14 24be
00000120: 8761 723d 8b28 3ebe 3707 553e fb74 17be
00000130: ceeb f7bd b652 5d3c 765f fb3d 6447 3b3e
00000140: 7910 60bd 98e6 44be 2373 273e 8608 52be
00000150: 4c44 dcbe 9cbb 6abf 6c72 ae3c eb9c 253f
00000160: 00ec 913e 1673 68bd 562c ae3e a132 11bf
00000170: c38c c2be ce60 8d3e 46b5 7c3d 8705 983e
00000180: 7e84 bb3e 4552 a33e 8653 0a3e 6250 22bf
00000190: fe44 2cbe 463d 653e ae48 9bbe 6471 cfbe
000001a0: 843c 96bc eb23 ffbe af21 033f aa34 d83e
000001b0: 6463 f1be 1688 1ebe b4ec 263e 216d 753e
000001c0: 65d4 2fbe 26f5 0fbe 7c4b 813e d452 1abe
000001d0: d079 1f3d 98c4 ae3d 1153 06be 36be e3be
000001e0: 890f adbe 765d 0c3d da02 c13e e81a 8c3c
000001f0: b227 60be 535b d5be 1b7d 13bf f211 323e
00000200: be0c 86be 3802 963d 4d5e 01be 506a 81be
00000210: ddee ebbe fa96 a33e d05b eabe 1b24 043e
00000220: 9b0c 6ebe cff4 49be 99c0 00bf e9e3 9dbe
00000230: 4fc8 17bd fbc1 b8be 6ddb afbd d99d 7b3e
00000240: 88b1 8fbe 88bb c33e 3256 553d 9a3a 1c3e
00000250: 6619 b1bc 53c0 cbbc b598 893e 45a0 c93e
00000260: eebc d73e e5ca 93be 154f 2cbe 2d2b acbc
00000270: 9803 c83e 4f02 35bf f3b4 153e c0e7 29be
00000280: 201f 9f3d fe4b c2be 8575 3b3e 326d 8d3f
00000290: dad3 7b3e 2ed3 e3be 0daf 09bd 34f2 1fbf
000002a0: ec75 c93e 07e1 91bd 2be5 c43e 0b0d 38be
000002b0: 1e82 20bf 0afc fc3d 738c 003f 53d9 83be
000002c0: 93bb 0ebe 8abb 5bbd 1951 0dbf 7949 84be
000002d0: 9ee6 493f f2ab 263f adba 053e 3c45 543c
000002e0: aee8 8fbe 69ff b53e 47b1 753d e1ed e0be
000002f0: b87e 08bf 4ef0 0a3f 52ac 6ebe 4c1c a23e
00000300: 6195 c9be 17fa 82bf 5912 9ebe 30aa b3bd
00000310: fbe6 f63d 3217 4b3c 9fab 2bbe c961 1dbe
00000320: 4936 ce3d 1cc7 57bf 97ae 1abe b817 323e
00000330: 5e99 2cbe e285 063f 5374 4bbe e5af 2dbd
00000340: e4a6 d5be 8725 10bf 25fa 92be 1bd6 86be
00000350: 1982 ca3e d151 c8be 668f 48bf 249f 05bf
00000360: 97b9 f43d a780 ed3e 77a0 053c 0465 b43d
00000370: 6fb3 6a3c b2eb a8bd dc2f 2c3c a759 6bbe
00000380: 8721 8fbe e6e3 353d 0a0d c4bd f64b a6bd
00000390: 40fd 2cbf e38d 73be fa28 6ebe bd11 d8be
000003a0: d686 93bd f1e8 1bbe 3f35 093e 32f5 25bc
000003b0: 0bcf 0ebf b8f5 2b3e 16a5 cbbe adbc 2e3e
000003c0: f763 e93d 44ec 73bd c6af 44be 1e28 2fbf
000003d0: e57b 57be 6081 2abf 2f7c a6be c121 3d3e
000003e0: f671 11be 7381 193e 760c 83be 68ff 983e
000003f0: 99a4 883c 607f 243e 3a9b 05bc 8bd9 32be
-0.6219372 -0.27441216 0.22460951 -0.61866385 -0.1359802 -0.3004715 -0.16306739 0.19473727
-0.15900564 -0.16532074 -0.2584874 0.03450889 0.25746948 -0.05138804 0.17772608 -0.0020832
-0.5146372 0.06830633 0.6282821 -0.5435108 -0.011490123 0.25589976 0.18187553 0.056294635
-0.35390678 0.4101916 -0.27028105 -0.12445465 -0.5744867 -0.050066732 0.51185536 0.30397853
0.09427491 -0.26131397 -0.6322772 -0.035166256 0.3886415 0.043596704 0.09512169 0.46945548
0.19546473 -0.22828111 0.18335544 -0.1725452 -0.813868 -0.9233695 -0.16067107 0.16181132
0.30311593 -0.36464444 0.26252264 -0.22005874 -0.23214546 -0.062769264 0.18116765 -0.35152927
0.32027483 -0.6121975 0.15078221 -0.021446051 0.2998091 -0.20234253 -0.03672363 0.07099299
0.3945938 0.07882891 -0.01870067 0.14447013 0.26476678 0.2897958 0.3872711 -0.1602358
0.05917504 -0.18570153 0.20803533 -0.14790718 -0.12105523 0.013508489 0.12274067 0.18288952
-0.05470321 -0.1922859 0.16352515 -0.20511064 -0.43020856 -0.9169252 0.021294795 0.6469256
0.28500366 -0.05675038 0.340182 -0.5671788 -0.37998018 0.2761292 0.061696313 0.29691717
0.3662452 0.31898704 0.13508424 -0.63403904 -0.16823193 0.22386655 -0.30328888 -0.40516198
-0.018339403 -0.4983209 0.5122327 0.4222768 -0.47146142 -0.154816 0.16301233 0.2396741
-0.17170866 -0.1405836 0.25252903 -0.15070659 0.03893453 0.08533591 -0.13117625 -0.44481057
-0.33800915 0.03426882 0.37697488 0.017102674 -0.21890143 -0.41671237 -0.5761277 0.17389658
-0.26181597 0.07324642 -0.12633629 -0.25276423 -0.46080676 0.31951123 -0.45773172 0.12904398
-0.23246996 -0.19722293 -0.5029388 -0.30837944 -0.037056264 -0.36085495 -0.08586774 0.24571933
-0.28065133 0.38229012 0.052084155 0.1525673 -0.021618556 -0.02487198 0.2687432 0.39380088
0.4213633 -0.28865734 -0.16827042 -0.021016682 0.39065242 -0.7070665 0.14619808 -0.16592312
0.077696085 -0.37948602 0.18306549 1.1048949 0.24592534 -0.44497055 -0.033614207 -0.6247895
0.3934778 -0.07122999 0.3845609 -0.17973725 -0.62698543 0.1235276 0.5021431 -0.25751743
-0.13938741 -0.053645648 -0.5520187 -0.25837305 0.7886752 0.6510612 0.13059492 0.01295596
-0.28107208 0.35546425 0.059983518 -0.43931487 -0.5331836 0.54272926 -0.23307922 0.31662214
-0.3937178 -1.0232571 -0.30873373 -0.08772695 0.12055775 0.012395667 -0.16764687 -0.15369333
0.10068948 -0.8428819 -0.15105663 0.1739186 -0.1685538 0.5254804 -0.19868593 -0.042404074
-0.4172889 -0.5630726 -0.2870647 -0.26335225 0.39552382 -0.3912492 -0.7834381 -0.52195954
0.11949461 0.46387216 0.008155934 0.0880833 0.014325007 -0.0824808 0.010509457 -0.22983418
-0.27955267 0.044406794 -0.095727995 -0.08119957 -0.6757393 -0.23784594 -0.23257819 -0.42201033
-0.07203452 -0.15225579 0.13399218 -0.01012926 -0.5578467 0.16792953 -0.39774388 0.17064162
0.1139602 -0.059551492 -0.19207677 -0.6842059 -0.21043356 -0.6660366 -0.3251662 0.18469907
-0.14203629 0.14990787 -0.25595444 0.2988236 0.016680049 0.16064215 -0.008154685 -0.17465799

conv5.bias f4 [32]
00000000: 41b3 86be 7fcf 1dbe e13e adbe 05de 72bf
00000010: c081 e63e e26f 2739 e3eb 0ebd 5483 e1bd
00000020: 714d 4ebf b25b 073f 71db e9be ff6d 61bf
00000030: 5463 083c e312 e73e 2333 313f 490e c9bc
00000040: c07e bb3e 83f9 703d e150 1fbf 668c 273e
00000050: 92c4 d1bd 1832 4fbf e85f 163f c72e 82bf
00000060: e254 36bf 26b8 04bf 25ea fd3e b3c5 2dbf
00000070: 8e8d 4ebf 65f4 353f 13b7 8fbf b78c c43d
-0.26308635 -0.15411185 -0.33837035 -0.94870025 0.45020866 0.0001596804 -0.034892928 -0.11011377
-0.80586916 0.5287429 -0.45675233 -0.88058466 0.008324463 0.45131597 0.69218653 -0.024542945
0.3662014 0.058831703 -0.62232786 0.16362152 -0.10242571 -0.8093581 0.5874009 -1.0170525
-0.7122327 -0.5184349 0.495927 -0.6787979 -0.80684745 0.7107604 -1.1227745 0.09597152

conv6.weight f4 [32, 32, 5, 5]
00000000: e2e9 c73e e299 483e 98a0 c83e c4cf 4fbf
00000010: 6c5f 5cbe 98f4 f5be 3705 49bc e253 29be
00000020: 19a7 243c d14a 27be c383 183f f464 dbbe
00000030: b782 5c3e f6d1 e23c 9452 153f 7f92 373f
00000040: e0c4 d53c f412 b13d d6b4 febd 0203 07bf
00000050: 3e23 313e a785 ad3e 0287 573e cfd2 a63e
00000060: 8330 2e3c c370 5c3e 1d0f 9abe d76f d2be
00000070: c9ea 88be d4fb 0bbf 98cc 03be 782d 1cbd
00000080: e3ff 153e e438 afbe 774a 25bf 0277 4dbe
00000090: cb9f debe 4d80 e53d d534 f43d 5e9e afbe
000000a0: f307 9cbe 1ba2 88bc 9f52 653d c9da e83c
000000b0: a08f 92be 08f0 14bf e265 393e 4a00 86be
000000c0: 5ae3 eb3e 15c3 b2be 466d a8be 148c 353e
000000d0: a236 e7be 8fab 0cbf b686 eebd d6db cbbd
000000e0: 8f16 24be f6eb 723e b504 41be 1790 1ebf
000000f0: bcad 55bc e657 513d 28b9 17be d778 cbbe
00000100: c487 143d 92ab 0bbd 9566 a9bd b1a6 68be
00000110: b5f8 2dbd cf36 5d3e 807d a6be a3bd ab3d
00000120: 0cde 10bd c779 35bf 01cc 52bc 79e0 4c3f
00000130: 4e7a f53e c746 2a3f d1a7 a7bd 5beb 8d3d
00000140: 1014 1f3f b9f7 c1ba 3e29 323d fbe4 0cbe
00000150: f4f9 ce3e b6c8 cbbd 6fcd a13d 862a 97be
00000160: 6d4d 12be 671c 093f d472 4abe c555 9c3e
00000170: d409 23bf 2c82 cabe b982 ccbd 6218 1f3e
00000180: 1425 783e 9dc0 cabe 46d2 eb3a f9c7 903d
00000190: 293f 1ebe f31e b03e 65ed 4d3e 06fd 33bf
000001a0: b1ef b0be e273 4cbd 84eb c03e 10d4 00be
000001b0: 9b0f b5bd 3572 c03e e35f 3a3e 8db2 bb3e
000001c0: ef08 543e 08ec fd3c d0dd 0dbe bf58 873d
000001d0: 82e4 38be e64f c93e 48be e7bd a644 4fbe
000001e0: ef88 003f bc5b 44bd 3b2a fb3e d3df 853d
000001f0: 7404 443d a349 73bc 4bc3 93be ffe0 97be
00000200: ce9e 1cbf 5791 89bd 9865 753d e1ff 0bbe
00000210: f596 9ebe 6a69 dcbd 1573 c2be 668d 3abe
00000220: 0af0 823e 119f 72bd 3b67 7f3e 0fb4 f53c
00000230: 4558 7ebe 056c 44bd 1fe2 eabd c1e1 d23d
00000240: f46e 9fbe e849 82be 28aa 12bf 1c37 6dbe
00000250: 59d3 c6be b41c 3dbf eba9 dcbe 7e51 65be
00000260: 7ded 2b3e 3038 41be 0bf6 76be f244 73bf
00000270: 0136 153d 3aaf 69bb 9a3a 40be 6078 b3be
00000280: 8400 af3e 3d5a af3e 0223 cb3e ba43 583e
00000290: f6ed 3ebe d621 d73d ff48 a83c 96f3 28bc
000002a0: d5bb 1bbe f841 6d3e 3d61 863e 3fae 873d
000002b0: f60e f7bc e181 53be c780 dd3d 22f8 2dbe
000002c0: 7807 9fbe 5dcb e4be b8c0 a9be a88a 6fbe
000002d0: 0270 19bd 0678 8fbe 4d20 5cbe 6525 b4be
000002e0: b339 06bd adcb a8be cc56 133e 62b2 f8bc
000002f0: 2262 443e 3750 93be 1042 1abf 2601 25bd
00000300: db0e ad3b 44b7 a43d f2c1 debd e043 033e
00000310: 5675 d13c 6722 ce3e e111 433e 92b4 103d
00000320: b168 f23e 0989 563f 7a22 77be d62b ea3e
00000330: 2cc3 7bbd f663 6dbd d366 b43e 64f7 893d
00000340: eccc b43d 19e0 353e 6396 2e3e 42c7 39bf
00000350: e92c 103e 5df7 4ebe 4e23 8bbe 2cdd e63e
00000360: 8eed 41be 65cf fcbe 6f52 4abe 7ca5 f3be
00000370: cb8e 54be a1e5 7bbe 07e5 a7be 14aa 64be
00000380: 2b05 28bf 2e2e 5bbe 8782 03be 06ef 3fbe
00000390: 4b1c c93e 1e9d c2bd 2aa4 06be 15e3 753d
000003a0: 2554 1e3e 3cc4 e1bd 79a8 a6bd f884 07be
000003b0: 4000 dbbd 5708 f43c 28d7 863e bb91 ebbe
000003c0: 82c5 abbe c149 6bbe 95d1 383e 1f13 8dbe
000003d0: fec0 203a 8126 30bf 1000 35be bee5 5dbe
000003e0: 2209 0cbd 9b54 323e 7a39 a93d 4c74 8e3e
000003f0: a7f9 9e3d e728 6fbe ead2 e4be 471c 9f3e
0.39045626 0.19589952 0.39185023 -0.811764 -0.21520776 -0.48038173 -0.01226931 -0.16535905
0.010049605 -0.16337134 0.5957605 -0.4285046 0.21534239 0.027688008 0.5832913 0.7170791
0.026094854 0.08646193 -0.124368355 -0.52738965 0.172986 0.3389103 0.21047595 0.3258271
0.010631683 0.2152739 -0.30089656 -0.41100952 -0.26741627 -0.54681134 -0.12871015 -0.0381293
0.14648394 -0.34223092 -0.6456675 -0.20064929 -0.43481287 0.11206112 0.119241394 -0.34300512
-0.30474815 -0.01667886 0.055986997 0.028424637 -0.28625202 -0.5817876 0.18105271 -0.26172096
0.46071893 -0.3491446 -0.3289587 0.17729217 -0.4515887 -0.5494928 -0.11646788 -0.0995404
-0.1602423 0.23722824 -0.18849452 -0.61938614 -0.01304191 0.051109217 -0.14816725 -0.3974063
0.03626229 -0.03409917 -0.08271519 -0.22719838 -0.042473514 0.21602939 -0.32517624 0.0838578
-0.03536801 -0.7088894 -0.012866021 0.8003002 0.47944874 0.6651425 -0.08186305 0.06929656
0.6213999 -0.0014798559 0.043496363 -0.13759224 0.40425074 -0.09950392 0.079005115 -0.2952463
-0.14287348 0.53558964 -0.19770366 0.30534187 -0.6368687 -0.39552438 -0.09985871 0.15536645
0.24232894 -0.39600077 0.0017991744 0.07069392 -0.15453781 0.34398612 0.2011009 -0.7030796
-0.3455787 -0.049915202 0.37679684 -0.12580895 -0.08840867 0.37587133 0.1820064 0.3665966
0.20706533 0.030996338 -0.13854146 0.06608724 -0.18055919 0.3931877 -0.1131559 -0.20241031
0.50208944 -0.047939047 0.49055657 0.06536832 0.04785581 -0.014849099 -0.28859934 -0.29663846
-0.61179817 -0.067171745 0.05991134 -0.13671829 -0.30974546 -0.10762294 -0.37978426 -0.18218002
0.2557376 -0.05923373 0.24941723 0.029993085 -0.2483836 -0.047954578 -0.114689104 0.102969654
-0.31139338 -0.2544701 -0.5729089 -0.23165554 -0.3883312 -0.7387192 -0.43098387 -0.22394368
0.16789813 -0.1886909 -0.24117295 -0.9502708 0.036428455 -0.0035657422 -0.18772355 -0.35052776
0.3418008 0.34248534 0.39675146 0.21119586 -0.18645462 0.105045006 0.02054262 -0.010311982
-0.15208371 0.23169696 0.26246062 0.06625032 -0.030158501 -0.20655014 0.10815578 -0.16989186
-0.31060386 -0.44686404 -0.33154845 -0.23392737 -0.037460335 -0.28021258 -0.21496697 -0.3518478
-0.03276987 -0.32967892 0.14388579 -0.030358497 0.1917806 -0.28772137 -0.60257053 -0.0402843
0.005281312 0.08042768 -0.10876836 0.12818861 0.025568645 0.40260622 0.19049789 0.035328455
0.47345498 0.8380285 -0.24134246 0.4573657 -0.061465427 -0.05795666 0.352347 0.06736639
0.08828148 0.17761268 0.17049555 -0.7256967 0.14079632 -0.20211549 -0.27175373 0.45090616
-0.18938276 -0.4937698 -0.19758008 -0.47587192 -0.20757596 -0.24599315 -0.32791921 -0.22330505
-0.65632886 -0.21404335 -0.12842761 -0.18743524 0.39279398 -0.09502624 -0.13148561 0.060031015
0.15461786 -0.11023757 -0.08137602 -0.13234317 -0.10693407 0.029789133 0.26336026 -0.4600962
-0.33549124 -0.22977354 0.18048699 -0.2755365 0.00061322737 -0.6880875 -0.17675805 -0.21669671
-0.034188397 0.17415087 0.08262916 0.27823102 0.07762461 -0.23355447 -0.44692165 0.3107626

conv6.bias f4 [32]
00000000: e28c 75bd 621e 03be 316c 0ebf 3615 3f3e
00000010: 72e8 0bbf 6a49 a1be da2a 22be abc7 c2be
00000020: 87bb 823f 07b6 23bf 28ed f63e 0574 92bf
00000030: 09ca 65bf bbc2 2cbf f4e2 9fbf c7b7 cc3e
00000040: 2e14 923e 15f7 55be 7aed 30bf 88f4 07bf
00000050: 8168 d4bd 72ba 1dbf f5c3 32bf 2d0e 2abf
00000060: 342e bebf 2ef5 63be 8b2c 873f 79f9 093f
00000070: 1a99 28bf 3de2 74bf 41eb 91bf 03c6 67be
-0.05994881 -0.12804559 -0.55633837 0.18660435 -0.5465156 -0.31501323 -0.15836659 -0.3804296
1.0213479 -0.63949627 0.4822781 -1.1441656 -0.89761406 -0.67484635 -1.2491136 0.3998396
0.2853102 -0.20895036 -0.6911236 -0.531075 -0.10371495 -0.6161262 -0.69830257 -0.6642788
-1.485785 -0.22261497 1.0560468 0.5389629 -0.65858614 -0.9565771 -1.1399919 -0.22634129

conv7.weight f4 [32, 32, 5, 5]
00000000: 8d22 cabd 6a0b 1f3e 61fb 96be e177 02bf
00000010: 3c72 90be 3d54 6fbd 4176 60bd f003 aebe
00000020: 128b d5be 8122 d3be 4f59 7c3d bcc7 70be
00000030: 463a 80bd b54b 023e c2ff 823e 7f94 903e
00000040: 9ded d1bc 6f85 413e 7e99 42be 9417 833e
00000050: 87ad e53e a876 2dbe c50c 193e b90f ac3d
00000060: f218 863d 52e1 d1bd d788 a4bd 5d11 68bd
00000070: f556 6c3e 2a90 263d 77e8 69be d647 4fbe
00000080: c82c b4bd c1d0 a63e 6796 80be 2577 5f3e
00000090: aed3 033e bd87 36bc 381d e8be cfdd c83d
000000a0: b932 83bd eeec 82bd e30e ed3d fa01 f0be
000000b0: 6a05 f4be 6bb5 033d 243e b5be 9e79 95be
000000c0: 01dc a2be 01d1 10be 75c2 1cbf 793e fabd
000000d0: ea39 0ebe 20d7 01be b2c2 bdbd 7aa3 0fbf
000000e0: 4b1e a2be 45aa 01be c832 aabd 781a 71be
000000f0: 7400 1dbf ec92 193f df38 923e 81b2 e6be
00000100: 8412 29bf 623d 03be 2274 973c 3860 41bf
00000110: f1bb f83d cdc7 9dbd b452 1bbd f039 753e
00000120: dfcf b7be 9246 9dbd 6ad0 393e 83a8 babe
00000130: 05fe abbd d56e 973e fc8a c33e a28d 9dbc
00000140: 1007 19bc 4a9e 24bf 16a6 123e 0325 323e
00000150: ea45 23bf 5943 923e d416 db3d 4089 ea3e
00000160: 0025 1cbd 51a5 f7be 05cf 67be b118 3c3d
00000170: c80b 083e 65f0 a4be b166 12bf 68b8 5a3e
00000180: 063d ad3b 4a1d 19be 9897 2d3e 3e8b f8bd
00000190: b6e8 3abe 2e45 10be c711 623e 4a93 ce3e
000001a0: 8080 17bf d7c1 98be acc0 86be 6f89 953d
000001b0: 84a8 073d 79ee a3be 0762 9cbe a8d5 85bc
000001c0: 56da bbbd 6a55 69be d2ca f4be e426 3d3e
000001d0: 3e99 9fbb 24a3 0a3f 2b72 1a3e 58d4 dc3d
000001e0: fe6b ac3d be25 cabe 8cb0 723e eb8a d63e
000001f0: cdab 8b3e 2570 88be c421 debe c243 e6bd
00000200: 493e 5fbe 3a09 08bf e78c 14bf 2151 30be
00000210: 5848 84be 1221 9cbe f932 cabe 59bb c23e
00000220: 78d1 a2be 98ab c03d bbf7 2dbe 44f7 b63e
00000230: 1dd2 39be 8629 e5be c816 6c3e c8ad 773e
00000240: 20ef f1bc 8a30 96be 72a3 c1be d17e dbbe
00000250: a728 91be 8429 8bbe bfe3 48be 4222 e4be
00000260: e684 80bd f6f2 4ebf 5620 58be 053e f0be
00000270: 72e4 06bf 45d6 c8be c596 153e a117 81be
00000280: b179 37bb a77d f6be b5cd 1ebe 03ef b43d
00000290: 0b28 053e 9867 d53c d289 2fbe 737d f9bd
000002a0: b45c cdbc 19a7 b73d d960 7fbd 8d67 57be
000002b0: 17e9 3bbf b1e6 b8be 8fbc 963d 450a b9be
000002c0: 9419 cabe 4966 11be 9ec7 b2be dd19 873e
000002d0: 554e 46be 113c d9be 29ce 4c3e b42e aabb
000002e0: 6447 c5bd ed48 91bd 4594 66be dc32 2bbe
000002f0: d53b 5ebe b44e 5fbe d34a 42be 708e 90bc
00000300: 0382 56be 65ac 103f 53e9 0f3e adc8 e03e
00000310: 5c95 c73e 2d5c 6b3d 702d e2bd 128c 82bd
00000320: 4cd3 f7be d9a1 32bf 8380 0f3e d37d 293f
00000330: 734a 883d 4df3 03bb c7bf 3ebe d93a ed3d
00000340: 6894 38be bf30 983e fc8f 983e 5e9d fc3b
00000350: d658 813e 473d c83a 6b73 d73d dded 243e
00000360: 9486 11be 1889 f6be a7fb 653e 6004 873d
00000370: 6e2a 4cbf bbc4 a6be 143c 51be 81d1 4dbd
00000380: f676 183e a7f8 0ebf d4da 24be 879a 1fbf
00000390: 4a22 703e 2c1d 803d 8576 763e 9775 14bf
000003a0: f71e 933d aca2 5abe 5f5f 7bbd 90d1 d93e
000003b0: 9fec 8c3d 98f7 28be 5de3 acbd 5930 823e
000003c0: e012 0ebe e853 abbd 0c7a 49be 2f66 73be
000003d0: f653 1f3e 0e64 663d c619 dcbd 296a ad3d
000003e0: 0c24 9f3e 765e 62be 6e6d 6abe 4885 fbbe
000003f0: 4681 98be 9f6d 023e cd1d b4be 2eab 313e
-0.09869871 0.15531698 -0.29488662 -0.5096417 -0.28212154 -0.058429945 -0.054800276 -0.3398738
-0.41707665 -0.41237262 0.06160861 -0.23513693 -0.06261115 0.12724192 0.25585753 0.28238294
-0.025625998 0.18898557 -0.19003865 0.25603926 0.44858953 -0.16939795 0.14946277 0.08401436
0.06547727 -0.102480546 -0.08033913 -0.056657184 0.23080046 0.04066483 -0.22842585 -0.20242247
-0.08797604 0.32581142 -0.25114748 0.21822794 0.12873718 -0.011140761 -0.45334792 0.09807932
-0.06406159 -0.06392847 0.11575105 -0.46876508 -0.4766038 0.032155436 -0.35398972 -0.2919435
-0.31808475 -0.14142229 -0.6123422 -0.12218947 -0.1388928 -0.1267972 -0.09265651 -0.5610882
-0.31663737 -0.12662609 -0.08310467 -0.23545253 -0.61328816 0.5998981 0.28559014 -0.45058063
-0.6604388 -0.12816384 0.018487994 -0.75537443 0.12145222 -0.077041246 -0.03792067 0.23947883
-0.3590078 -0.07679476 0.1814591 -0.3645669 -0.0839806 0.29576746 0.38191974 -0.019232575
-0.009340063 -0.6430403 0.1432117 0.17396931 -0.63778555 0.28567007 0.106977135 0.45807838
-0.038121223 -0.48368314 -0.22637565 0.045921985 0.13285744 -0.32214656 -0.57187945 0.21359408
0.0052868156 -0.14952579 0.1695236 -0.12135933 -0.18252835 -0.1408889 0.22077094 0.40346748
-0.5918045 -0.29835388 -0.26318872 0.07301604 0.033119693 -0.32017878 -0.3054354 -0.01633723
-0.09172504 -0.22786489 -0.4781099 0.18471867 -0.004870563 0.5415518 0.15082614 0.10782689
0.084190354 -0.3948192 0.2370016 0.4190286 0.2727951 -0.2664806 -0.43385136 -0.112433925
-0.21801104 -0.5313908 -0.580275 -0.17218448 -0.25836444 -0.3049398 -0.39492014 0.3803356
-0.31800437 0.09407729 -0.16989033 0.35735524 -0.18146558 -0.44758242 0.23055565 0.24187386
-0.029532969 -0.29333907 -0.3782001 -0.4287019 -0.28351328 -0.2718011 -0.19618128 -0.44557387
-0.06275348 -0.8083948 -0.21106085 -0.46922317 -0.5269233 -0.39225975 0.14608295 -0.2521334
-0.0027996118 -0.4814274 -0.15508159 0.0883465 0.13003556 0.026050374 -0.17142418 -0.12182131
-0.025068618 0.08967418 -0.06234822 -0.21035595 -0.7340254 -0.36113504 0.073601834 -0.36140648
-0.3947264 -0.14199175 -0.3491792 0.2638692 -0.19365819 -0.4242864 0.20000519 -0.0051935557
-0.09632757 -0.070939876 -0.22517498 -0.1671862 -0.21702512 -0.21807367 -0.18973856 -0.017646044
-0.20948033 0.56513053 0.1405385 0.43903103 0.3898114 0.057460953 -0.11043823 -0.063743725
-0.48403394 -0.6977821 0.14013867 0.6620762 0.06654825 -0.0020134032 -0.18627845 0.1158349
-0.18025362 0.2972469 0.2979735 0.0077091893 0.2526309 0.0015277051 0.10520061 0.16106363
-0.14211494 -0.4815147 0.22459279 0.06592631 -0.7975224 -0.32571968 -0.20433074 -0.050248627
0.1488913 -0.55848163 -0.16099101 -0.62345165 0.2345058 0.06255564 0.24068649 -0.5799193
0.071836405 -0.21351117 -0.06137025 0.42542696 0.068810694 -0.165007 -0.084418036 0.2542751
-0.13874388 -0.08365613 -0.19675463 -0.23769449 0.15559372 0.056247763 -0.107471034 0.08467514
0.3108219 -0.22106346 -0.22893307 -0.49125123 -0.29786128 0.1273713 -0.35178986 0.17350456

conv7.bias f4 [32]
00000000: c5b6 303f 5466 92bf ca55 1f3f 973d 11be
00000010: 44c8 003f 4124 9b3e e6a4 a7bf 028d c1bf
00000020: a961 46bf 1be1 acbf 8484 993f 9b8d 6bbf
00000030: 5916 f03e 3b0a c63e ea0d 99bf 9d3b 3b3f
00000040: 7048 7abf cad9 073f 6836 383f 8561 bf3f
00000050: b744 e93b 2c92 2bbf 9946 9fbe 0326 883f
00000060: fdf1 c7bd 68b4 adbd 540f a73e 95bd 7bbf
00000070: c633 c4be 68d5 a4be 0907 06bf 9c07 82bf
0.69028884 -1.1437478 0.6224028 -0.14183651 0.5030558 0.30301097 -1.3097198 -1.5121157
-0.7749277 -1.3506197 1.1993566 -0.9201295 0.4689205 0.3867968 -1.1957371 0.7313784
-0.9776678 0.53066695 0.7195802 1.4951636 0.007118787 -0.67019916 -0.3110855 1.06366
-0.097629525 -0.084816754 0.32628882 -0.98336154 -0.3832075 -0.32194066 -0.52354485 -1.0158572
